{
  "layers" : [
    {
      "pad_r" : 2,
      "fused_relu" : 1,
      "fused_tanh" : 0,
      "debug_info" : "input.2",
      "pad_fill_mode" : 0,
      "pad_b" : 2,
      "pad_l" : 1,
      "top" : "input.3",
      "blob_weights" : 3,
      "K" : 3,
      "blob_biases" : 1,
      "stride_x" : 2,
      "name" : "input.2",
      "has_batch_norm" : 0,
      "type" : "convolution",
      "n_groups" : 1,
      "pad_t" : 1,
      "stride_y" : 2,
      "has_biases" : 1,
      "C" : 24,
      "bottom" : "image",
      "weights" : {

      },
      "Nx" : 5,
      "pad_mode" : 0,
      "pad_value" : 0,
      "Ny" : 5,
      "n_parallel" : 1
    },
    {
      "pad_r" : 1,
      "fused_relu" : 0,
      "fused_tanh" : 0,
      "debug_info" : "input.4",
      "pad_fill_mode" : 0,
      "pad_b" : 1,
      "pad_l" : 1,
      "top" : "input.4",
      "blob_weights" : 7,
      "K" : 24,
      "blob_biases" : 5,
      "name" : "input.4",
      "has_batch_norm" : 0,
      "type" : "convolution",
      "n_groups" : 24,
      "pad_t" : 1,
      "has_biases" : 1,
      "C" : 24,
      "bottom" : "input.3",
      "weights" : {

      },
      "Nx" : 3,
      "pad_mode" : 0,
      "pad_value" : 0,
      "Ny" : 3,
      "n_parallel" : 1
    },
    {
      "pad_r" : 0,
      "fused_relu" : 0,
      "fused_tanh" : 0,
      "debug_info" : "139",
      "pad_fill_mode" : 0,
      "pad_b" : 0,
      "pad_l" : 0,
      "top" : "139",
      "blob_weights" : 11,
      "K" : 24,
      "blob_biases" : 9,
      "name" : "139",
      "has_batch_norm" : 0,
      "type" : "convolution",
      "n_groups" : 1,
      "pad_t" : 0,
      "has_biases" : 1,
      "C" : 24,
      "bottom" : "input.4",
      "weights" : {

      },
      "Nx" : 1,
      "pad_mode" : 0,
      "pad_value" : 0,
      "Ny" : 1,
      "n_parallel" : 1
    },
    {
      "bottom" : "139,input.3",
      "alpha" : 1,
      "operation" : 0,
      "weights" : {

      },
      "fused_relu" : 0,
      "debug_info" : "input.5",
      "top" : "input.5",
      "type" : "elementwise",
      "name" : "input.5",
      "beta" : 0
    },
    {
      "bottom" : "input.5",
      "weights" : {

      },
      "mode" : 0,
      "debug_info" : "input.6",
      "top" : "input.6",
      "type" : "activation",
      "name" : "input.6"
    },
    {
      "pads_0" : 0,
      "top" : "x.2",
      "debug_info" : "x.2",
      "pads_2" : 0,
      "pads_4" : 0,
      "type" : "tensor_zero_pad",
      "pads_6" : 0,
      "pads_8" : 0,
      "pads_10" : 0,
      "value" : 0,
      "pads_11" : 0,
      "pads_12" : 0,
      "pads_13" : 0,
      "pads_20" : 0,
      "pads_14" : 0,
      "name" : "x.2",
      "pads_22" : 0,
      "pads_21" : 0,
      "pads_23" : 0,
      "nd_mode" : true,
      "pads_24" : 0,
      "pads_17" : 0,
      "pads_32" : 0,
      "pads_18" : 0,
      "pads_33" : 0,
      "pads_19" : 0,
      "pads_34" : 0,
      "pads_27" : 0,
      "pads_28" : 0,
      "pads_42" : 0,
      "pads_43" : 0,
      "pads_29" : 0,
      "pads_37" : 0,
      "pads_41" : 0,
      "pads_38" : 0,
      "pads_31" : 0,
      "pads_39" : 0,
      "pads_36" : 0,
      "pads_40" : 0,
      "pads_26" : 0,
      "pads_16" : 0,
      "pads_30" : 0,
      "pads_45" : 0,
      "pads_35" : 0,
      "pads_25" : 0,
      "pads_15" : 0,
      "pads_1" : 0,
      "pads_44" : 0,
      "pads_46" : 0,
      "pads_3" : 4,
      "pads_47" : 0,
      "pads_48" : 0,
      "pads_5" : 0,
      "pads_49" : 0,
      "pads_50" : 0,
      "pads_7" : 0,
      "pads_51" : 0,
      "pads_52" : 0,
      "pads_9" : 0,
      "pads_53" : 0,
      "pads_54" : 0,
      "pads_55" : 0,
      "pads_56" : 0,
      "pads_57" : 0,
      "pads_58" : 0,
      "pads_59" : 0,
      "pads_60" : 0,
      "pads_61" : 0,
      "pads_62" : 0,
      "pads_63" : 0,
      "weights" : {

      },
      "bottom" : "input.6"
    },
    {
      "pad_r" : 1,
      "fused_relu" : 0,
      "fused_tanh" : 0,
      "debug_info" : "input.7",
      "pad_fill_mode" : 0,
      "pad_b" : 1,
      "pad_l" : 1,
      "top" : "input.7",
      "blob_weights" : 15,
      "K" : 24,
      "blob_biases" : 13,
      "name" : "input.7",
      "has_batch_norm" : 0,
      "type" : "convolution",
      "n_groups" : 24,
      "pad_t" : 1,
      "has_biases" : 1,
      "C" : 24,
      "bottom" : "input.6",
      "weights" : {

      },
      "Nx" : 3,
      "pad_mode" : 0,
      "pad_value" : 0,
      "Ny" : 3,
      "n_parallel" : 1
    },
    {
      "pad_r" : 0,
      "fused_relu" : 0,
      "fused_tanh" : 0,
      "debug_info" : "187",
      "pad_fill_mode" : 0,
      "pad_b" : 0,
      "pad_l" : 0,
      "top" : "187",
      "blob_weights" : 19,
      "K" : 24,
      "blob_biases" : 17,
      "name" : "187",
      "has_batch_norm" : 0,
      "type" : "convolution",
      "n_groups" : 1,
      "pad_t" : 0,
      "has_biases" : 1,
      "C" : 28,
      "bottom" : "input.7",
      "weights" : {

      },
      "Nx" : 1,
      "pad_mode" : 0,
      "pad_value" : 0,
      "Ny" : 1,
      "n_parallel" : 1
    },
    {
      "bottom" : "187,x.2",
      "alpha" : 1,
      "operation" : 0,
      "weights" : {

      },
      "fused_relu" : 0,
      "debug_info" : "input.8",
      "top" : "input.8",
      "type" : "elementwise",
      "name" : "input.8",
      "beta" : 0
    },
    {
      "bottom" : "input.8",
      "weights" : {

      },
      "mode" : 0,
      "debug_info" : "input.9",
      "top" : "input.9",
      "type" : "activation",
      "name" : "input.9"
    },
    {
      "pad_r" : 0,
      "debug_info" : "input.10",
      "pad_fill_mode" : 0,
      "pad_b" : 0,
      "pad_l" : 0,
      "size_x" : 2,
      "top" : "input.10",
      "top_shape_style" : 0,
      "stride_x" : 2,
      "avg_or_max" : 1,
      "average_count_exclude_padding" : 1,
      "type" : "pool",
      "name" : "input.10",
      "pad_t" : 0,
      "stride_y" : 2,
      "bottom" : "input.9",
      "weights" : {

      },
      "pad_mode" : 2,
      "size_y" : 2,
      "pad_value" : 0
    },
    {
      "pads_0" : 0,
      "top" : "x.3",
      "debug_info" : "x.3",
      "pads_2" : 0,
      "pads_4" : 0,
      "type" : "tensor_zero_pad",
      "pads_6" : 0,
      "pads_8" : 0,
      "pads_10" : 0,
      "value" : 0,
      "pads_11" : 0,
      "pads_12" : 0,
      "pads_13" : 0,
      "pads_20" : 0,
      "pads_14" : 0,
      "name" : "x.3",
      "pads_22" : 0,
      "pads_21" : 0,
      "pads_23" : 0,
      "nd_mode" : true,
      "pads_24" : 0,
      "pads_17" : 0,
      "pads_32" : 0,
      "pads_18" : 0,
      "pads_33" : 0,
      "pads_19" : 0,
      "pads_34" : 0,
      "pads_27" : 0,
      "pads_28" : 0,
      "pads_42" : 0,
      "pads_43" : 0,
      "pads_29" : 0,
      "pads_37" : 0,
      "pads_41" : 0,
      "pads_38" : 0,
      "pads_31" : 0,
      "pads_39" : 0,
      "pads_36" : 0,
      "pads_40" : 0,
      "pads_26" : 0,
      "pads_16" : 0,
      "pads_30" : 0,
      "pads_45" : 0,
      "pads_35" : 0,
      "pads_25" : 0,
      "pads_15" : 0,
      "pads_1" : 0,
      "pads_44" : 0,
      "pads_46" : 0,
      "pads_3" : 4,
      "pads_47" : 0,
      "pads_48" : 0,
      "pads_5" : 0,
      "pads_49" : 0,
      "pads_50" : 0,
      "pads_7" : 0,
      "pads_51" : 0,
      "pads_52" : 0,
      "pads_9" : 0,
      "pads_53" : 0,
      "pads_54" : 0,
      "pads_55" : 0,
      "pads_56" : 0,
      "pads_57" : 0,
      "pads_58" : 0,
      "pads_59" : 0,
      "pads_60" : 0,
      "pads_61" : 0,
      "pads_62" : 0,
      "pads_63" : 0,
      "weights" : {

      },
      "bottom" : "input.10"
    },
    {
      "pad_r" : 2,
      "fused_relu" : 0,
      "fused_tanh" : 0,
      "debug_info" : "input.12",
      "pad_fill_mode" : 0,
      "pad_b" : 2,
      "pad_l" : 0,
      "top" : "input.12",
      "blob_weights" : 23,
      "K" : 28,
      "blob_biases" : 21,
      "stride_x" : 2,
      "name" : "input.12",
      "has_batch_norm" : 0,
      "type" : "convolution",
      "n_groups" : 28,
      "pad_t" : 0,
      "stride_y" : 2,
      "has_biases" : 1,
      "C" : 28,
      "bottom" : "input.9",
      "weights" : {

      },
      "Nx" : 3,
      "pad_mode" : 0,
      "pad_value" : 0,
      "Ny" : 3,
      "n_parallel" : 1
    },
    {
      "pad_r" : 0,
      "fused_relu" : 0,
      "fused_tanh" : 0,
      "debug_info" : "256",
      "pad_fill_mode" : 0,
      "pad_b" : 0,
      "pad_l" : 0,
      "top" : "256",
      "blob_weights" : 27,
      "K" : 28,
      "blob_biases" : 25,
      "name" : "256",
      "has_batch_norm" : 0,
      "type" : "convolution",
      "n_groups" : 1,
      "pad_t" : 0,
      "has_biases" : 1,
      "C" : 32,
      "bottom" : "input.12",
      "weights" : {

      },
      "Nx" : 1,
      "pad_mode" : 0,
      "pad_value" : 0,
      "Ny" : 1,
      "n_parallel" : 1
    },
    {
      "bottom" : "256,x.3",
      "alpha" : 1,
      "operation" : 0,
      "weights" : {

      },
      "fused_relu" : 0,
      "debug_info" : "input.13",
      "top" : "input.13",
      "type" : "elementwise",
      "name" : "input.13",
      "beta" : 0
    },
    {
      "bottom" : "input.13",
      "weights" : {

      },
      "mode" : 0,
      "debug_info" : "input.14",
      "top" : "input.14",
      "type" : "activation",
      "name" : "input.14"
    },
    {
      "pads_0" : 0,
      "top" : "x.4",
      "debug_info" : "x.4",
      "pads_2" : 0,
      "pads_4" : 0,
      "type" : "tensor_zero_pad",
      "pads_6" : 0,
      "pads_8" : 0,
      "pads_10" : 0,
      "value" : 0,
      "pads_11" : 0,
      "pads_12" : 0,
      "pads_13" : 0,
      "pads_20" : 0,
      "pads_14" : 0,
      "name" : "x.4",
      "pads_22" : 0,
      "pads_21" : 0,
      "pads_23" : 0,
      "nd_mode" : true,
      "pads_24" : 0,
      "pads_17" : 0,
      "pads_32" : 0,
      "pads_18" : 0,
      "pads_33" : 0,
      "pads_19" : 0,
      "pads_34" : 0,
      "pads_27" : 0,
      "pads_28" : 0,
      "pads_42" : 0,
      "pads_43" : 0,
      "pads_29" : 0,
      "pads_37" : 0,
      "pads_41" : 0,
      "pads_38" : 0,
      "pads_31" : 0,
      "pads_39" : 0,
      "pads_36" : 0,
      "pads_40" : 0,
      "pads_26" : 0,
      "pads_16" : 0,
      "pads_30" : 0,
      "pads_45" : 0,
      "pads_35" : 0,
      "pads_25" : 0,
      "pads_15" : 0,
      "pads_1" : 0,
      "pads_44" : 0,
      "pads_46" : 0,
      "pads_3" : 4,
      "pads_47" : 0,
      "pads_48" : 0,
      "pads_5" : 0,
      "pads_49" : 0,
      "pads_50" : 0,
      "pads_7" : 0,
      "pads_51" : 0,
      "pads_52" : 0,
      "pads_9" : 0,
      "pads_53" : 0,
      "pads_54" : 0,
      "pads_55" : 0,
      "pads_56" : 0,
      "pads_57" : 0,
      "pads_58" : 0,
      "pads_59" : 0,
      "pads_60" : 0,
      "pads_61" : 0,
      "pads_62" : 0,
      "pads_63" : 0,
      "weights" : {

      },
      "bottom" : "input.14"
    },
    {
      "pad_r" : 1,
      "fused_relu" : 0,
      "fused_tanh" : 0,
      "debug_info" : "input.15",
      "pad_fill_mode" : 0,
      "pad_b" : 1,
      "pad_l" : 1,
      "top" : "input.15",
      "blob_weights" : 31,
      "K" : 32,
      "blob_biases" : 29,
      "name" : "input.15",
      "has_batch_norm" : 0,
      "type" : "convolution",
      "n_groups" : 32,
      "pad_t" : 1,
      "has_biases" : 1,
      "C" : 32,
      "bottom" : "input.14",
      "weights" : {

      },
      "Nx" : 3,
      "pad_mode" : 0,
      "pad_value" : 0,
      "Ny" : 3,
      "n_parallel" : 1
    },
    {
      "pad_r" : 0,
      "fused_relu" : 0,
      "fused_tanh" : 0,
      "debug_info" : "304",
      "pad_fill_mode" : 0,
      "pad_b" : 0,
      "pad_l" : 0,
      "top" : "304",
      "blob_weights" : 35,
      "K" : 32,
      "blob_biases" : 33,
      "name" : "304",
      "has_batch_norm" : 0,
      "type" : "convolution",
      "n_groups" : 1,
      "pad_t" : 0,
      "has_biases" : 1,
      "C" : 36,
      "bottom" : "input.15",
      "weights" : {

      },
      "Nx" : 1,
      "pad_mode" : 0,
      "pad_value" : 0,
      "Ny" : 1,
      "n_parallel" : 1
    },
    {
      "bottom" : "304,x.4",
      "alpha" : 1,
      "operation" : 0,
      "weights" : {

      },
      "fused_relu" : 0,
      "debug_info" : "input.16",
      "top" : "input.16",
      "type" : "elementwise",
      "name" : "input.16",
      "beta" : 0
    },
    {
      "bottom" : "input.16",
      "weights" : {

      },
      "mode" : 0,
      "debug_info" : "input.17",
      "top" : "input.17",
      "type" : "activation",
      "name" : "input.17"
    },
    {
      "pads_0" : 0,
      "top" : "x.5",
      "debug_info" : "x.5",
      "pads_2" : 0,
      "pads_4" : 0,
      "type" : "tensor_zero_pad",
      "pads_6" : 0,
      "pads_8" : 0,
      "pads_10" : 0,
      "value" : 0,
      "pads_11" : 0,
      "pads_12" : 0,
      "pads_13" : 0,
      "pads_20" : 0,
      "pads_14" : 0,
      "name" : "x.5",
      "pads_22" : 0,
      "pads_21" : 0,
      "pads_23" : 0,
      "nd_mode" : true,
      "pads_24" : 0,
      "pads_17" : 0,
      "pads_32" : 0,
      "pads_18" : 0,
      "pads_33" : 0,
      "pads_19" : 0,
      "pads_34" : 0,
      "pads_27" : 0,
      "pads_28" : 0,
      "pads_42" : 0,
      "pads_43" : 0,
      "pads_29" : 0,
      "pads_37" : 0,
      "pads_41" : 0,
      "pads_38" : 0,
      "pads_31" : 0,
      "pads_39" : 0,
      "pads_36" : 0,
      "pads_40" : 0,
      "pads_26" : 0,
      "pads_16" : 0,
      "pads_30" : 0,
      "pads_45" : 0,
      "pads_35" : 0,
      "pads_25" : 0,
      "pads_15" : 0,
      "pads_1" : 0,
      "pads_44" : 0,
      "pads_46" : 0,
      "pads_3" : 6,
      "pads_47" : 0,
      "pads_48" : 0,
      "pads_5" : 0,
      "pads_49" : 0,
      "pads_50" : 0,
      "pads_7" : 0,
      "pads_51" : 0,
      "pads_52" : 0,
      "pads_9" : 0,
      "pads_53" : 0,
      "pads_54" : 0,
      "pads_55" : 0,
      "pads_56" : 0,
      "pads_57" : 0,
      "pads_58" : 0,
      "pads_59" : 0,
      "pads_60" : 0,
      "pads_61" : 0,
      "pads_62" : 0,
      "pads_63" : 0,
      "weights" : {

      },
      "bottom" : "input.17"
    },
    {
      "pad_r" : 1,
      "fused_relu" : 0,
      "fused_tanh" : 0,
      "debug_info" : "input.18",
      "pad_fill_mode" : 0,
      "pad_b" : 1,
      "pad_l" : 1,
      "top" : "input.18",
      "blob_weights" : 39,
      "K" : 36,
      "blob_biases" : 37,
      "name" : "input.18",
      "has_batch_norm" : 0,
      "type" : "convolution",
      "n_groups" : 36,
      "pad_t" : 1,
      "has_biases" : 1,
      "C" : 36,
      "bottom" : "input.17",
      "weights" : {

      },
      "Nx" : 3,
      "pad_mode" : 0,
      "pad_value" : 0,
      "Ny" : 3,
      "n_parallel" : 1
    },
    {
      "pad_r" : 0,
      "fused_relu" : 0,
      "fused_tanh" : 0,
      "debug_info" : "352",
      "pad_fill_mode" : 0,
      "pad_b" : 0,
      "pad_l" : 0,
      "top" : "352",
      "blob_weights" : 43,
      "K" : 36,
      "blob_biases" : 41,
      "name" : "352",
      "has_batch_norm" : 0,
      "type" : "convolution",
      "n_groups" : 1,
      "pad_t" : 0,
      "has_biases" : 1,
      "C" : 42,
      "bottom" : "input.18",
      "weights" : {

      },
      "Nx" : 1,
      "pad_mode" : 0,
      "pad_value" : 0,
      "Ny" : 1,
      "n_parallel" : 1
    },
    {
      "bottom" : "352,x.5",
      "alpha" : 1,
      "operation" : 0,
      "weights" : {

      },
      "fused_relu" : 0,
      "debug_info" : "input.19",
      "top" : "input.19",
      "type" : "elementwise",
      "name" : "input.19",
      "beta" : 0
    },
    {
      "bottom" : "input.19",
      "weights" : {

      },
      "mode" : 0,
      "debug_info" : "input.20",
      "top" : "input.20",
      "type" : "activation",
      "name" : "input.20"
    },
    {
      "pad_r" : 0,
      "debug_info" : "input.21",
      "pad_fill_mode" : 0,
      "pad_b" : 0,
      "pad_l" : 0,
      "size_x" : 2,
      "top" : "input.21",
      "top_shape_style" : 0,
      "stride_x" : 2,
      "avg_or_max" : 1,
      "average_count_exclude_padding" : 1,
      "type" : "pool",
      "name" : "input.21",
      "pad_t" : 0,
      "stride_y" : 2,
      "bottom" : "input.20",
      "weights" : {

      },
      "pad_mode" : 2,
      "size_y" : 2,
      "pad_value" : 0
    },
    {
      "pads_0" : 0,
      "top" : "x.6",
      "debug_info" : "x.6",
      "pads_2" : 0,
      "pads_4" : 0,
      "type" : "tensor_zero_pad",
      "pads_6" : 0,
      "pads_8" : 0,
      "pads_10" : 0,
      "value" : 0,
      "pads_11" : 0,
      "pads_12" : 0,
      "pads_13" : 0,
      "pads_20" : 0,
      "pads_14" : 0,
      "name" : "x.6",
      "pads_22" : 0,
      "pads_21" : 0,
      "pads_23" : 0,
      "nd_mode" : true,
      "pads_24" : 0,
      "pads_17" : 0,
      "pads_32" : 0,
      "pads_18" : 0,
      "pads_33" : 0,
      "pads_19" : 0,
      "pads_34" : 0,
      "pads_27" : 0,
      "pads_28" : 0,
      "pads_42" : 0,
      "pads_43" : 0,
      "pads_29" : 0,
      "pads_37" : 0,
      "pads_41" : 0,
      "pads_38" : 0,
      "pads_31" : 0,
      "pads_39" : 0,
      "pads_36" : 0,
      "pads_40" : 0,
      "pads_26" : 0,
      "pads_16" : 0,
      "pads_30" : 0,
      "pads_45" : 0,
      "pads_35" : 0,
      "pads_25" : 0,
      "pads_15" : 0,
      "pads_1" : 0,
      "pads_44" : 0,
      "pads_46" : 0,
      "pads_3" : 6,
      "pads_47" : 0,
      "pads_48" : 0,
      "pads_5" : 0,
      "pads_49" : 0,
      "pads_50" : 0,
      "pads_7" : 0,
      "pads_51" : 0,
      "pads_52" : 0,
      "pads_9" : 0,
      "pads_53" : 0,
      "pads_54" : 0,
      "pads_55" : 0,
      "pads_56" : 0,
      "pads_57" : 0,
      "pads_58" : 0,
      "pads_59" : 0,
      "pads_60" : 0,
      "pads_61" : 0,
      "pads_62" : 0,
      "pads_63" : 0,
      "weights" : {

      },
      "bottom" : "input.21"
    },
    {
      "pad_r" : 2,
      "fused_relu" : 0,
      "fused_tanh" : 0,
      "debug_info" : "input.23",
      "pad_fill_mode" : 0,
      "pad_b" : 2,
      "pad_l" : 0,
      "top" : "input.23",
      "blob_weights" : 47,
      "K" : 42,
      "blob_biases" : 45,
      "stride_x" : 2,
      "name" : "input.23",
      "has_batch_norm" : 0,
      "type" : "convolution",
      "n_groups" : 42,
      "pad_t" : 0,
      "stride_y" : 2,
      "has_biases" : 1,
      "C" : 42,
      "bottom" : "input.20",
      "weights" : {

      },
      "Nx" : 3,
      "pad_mode" : 0,
      "pad_value" : 0,
      "Ny" : 3,
      "n_parallel" : 1
    },
    {
      "pad_r" : 0,
      "fused_relu" : 0,
      "fused_tanh" : 0,
      "debug_info" : "421",
      "pad_fill_mode" : 0,
      "pad_b" : 0,
      "pad_l" : 0,
      "top" : "421",
      "blob_weights" : 51,
      "K" : 42,
      "blob_biases" : 49,
      "name" : "421",
      "has_batch_norm" : 0,
      "type" : "convolution",
      "n_groups" : 1,
      "pad_t" : 0,
      "has_biases" : 1,
      "C" : 48,
      "bottom" : "input.23",
      "weights" : {

      },
      "Nx" : 1,
      "pad_mode" : 0,
      "pad_value" : 0,
      "Ny" : 1,
      "n_parallel" : 1
    },
    {
      "bottom" : "421,x.6",
      "alpha" : 1,
      "operation" : 0,
      "weights" : {

      },
      "fused_relu" : 0,
      "debug_info" : "input.24",
      "top" : "input.24",
      "type" : "elementwise",
      "name" : "input.24",
      "beta" : 0
    },
    {
      "bottom" : "input.24",
      "weights" : {

      },
      "mode" : 0,
      "debug_info" : "input.25",
      "top" : "input.25",
      "type" : "activation",
      "name" : "input.25"
    },
    {
      "pads_0" : 0,
      "top" : "x.7",
      "debug_info" : "x.7",
      "pads_2" : 0,
      "pads_4" : 0,
      "type" : "tensor_zero_pad",
      "pads_6" : 0,
      "pads_8" : 0,
      "pads_10" : 0,
      "value" : 0,
      "pads_11" : 0,
      "pads_12" : 0,
      "pads_13" : 0,
      "pads_20" : 0,
      "pads_14" : 0,
      "name" : "x.7",
      "pads_22" : 0,
      "pads_21" : 0,
      "pads_23" : 0,
      "nd_mode" : true,
      "pads_24" : 0,
      "pads_17" : 0,
      "pads_32" : 0,
      "pads_18" : 0,
      "pads_33" : 0,
      "pads_19" : 0,
      "pads_34" : 0,
      "pads_27" : 0,
      "pads_28" : 0,
      "pads_42" : 0,
      "pads_43" : 0,
      "pads_29" : 0,
      "pads_37" : 0,
      "pads_41" : 0,
      "pads_38" : 0,
      "pads_31" : 0,
      "pads_39" : 0,
      "pads_36" : 0,
      "pads_40" : 0,
      "pads_26" : 0,
      "pads_16" : 0,
      "pads_30" : 0,
      "pads_45" : 0,
      "pads_35" : 0,
      "pads_25" : 0,
      "pads_15" : 0,
      "pads_1" : 0,
      "pads_44" : 0,
      "pads_46" : 0,
      "pads_3" : 8,
      "pads_47" : 0,
      "pads_48" : 0,
      "pads_5" : 0,
      "pads_49" : 0,
      "pads_50" : 0,
      "pads_7" : 0,
      "pads_51" : 0,
      "pads_52" : 0,
      "pads_9" : 0,
      "pads_53" : 0,
      "pads_54" : 0,
      "pads_55" : 0,
      "pads_56" : 0,
      "pads_57" : 0,
      "pads_58" : 0,
      "pads_59" : 0,
      "pads_60" : 0,
      "pads_61" : 0,
      "pads_62" : 0,
      "pads_63" : 0,
      "weights" : {

      },
      "bottom" : "input.25"
    },
    {
      "pad_r" : 1,
      "fused_relu" : 0,
      "fused_tanh" : 0,
      "debug_info" : "input.26",
      "pad_fill_mode" : 0,
      "pad_b" : 1,
      "pad_l" : 1,
      "top" : "input.26",
      "blob_weights" : 55,
      "K" : 48,
      "blob_biases" : 53,
      "name" : "input.26",
      "has_batch_norm" : 0,
      "type" : "convolution",
      "n_groups" : 48,
      "pad_t" : 1,
      "has_biases" : 1,
      "C" : 48,
      "bottom" : "input.25",
      "weights" : {

      },
      "Nx" : 3,
      "pad_mode" : 0,
      "pad_value" : 0,
      "Ny" : 3,
      "n_parallel" : 1
    },
    {
      "pad_r" : 0,
      "fused_relu" : 0,
      "fused_tanh" : 0,
      "debug_info" : "469",
      "pad_fill_mode" : 0,
      "pad_b" : 0,
      "pad_l" : 0,
      "top" : "469",
      "blob_weights" : 59,
      "K" : 48,
      "blob_biases" : 57,
      "name" : "469",
      "has_batch_norm" : 0,
      "type" : "convolution",
      "n_groups" : 1,
      "pad_t" : 0,
      "has_biases" : 1,
      "C" : 56,
      "bottom" : "input.26",
      "weights" : {

      },
      "Nx" : 1,
      "pad_mode" : 0,
      "pad_value" : 0,
      "Ny" : 1,
      "n_parallel" : 1
    },
    {
      "bottom" : "469,x.7",
      "alpha" : 1,
      "operation" : 0,
      "weights" : {

      },
      "fused_relu" : 0,
      "debug_info" : "input.27",
      "top" : "input.27",
      "type" : "elementwise",
      "name" : "input.27",
      "beta" : 0
    },
    {
      "bottom" : "input.27",
      "weights" : {

      },
      "mode" : 0,
      "debug_info" : "input.28",
      "top" : "input.28",
      "type" : "activation",
      "name" : "input.28"
    },
    {
      "pads_0" : 0,
      "top" : "x.8",
      "debug_info" : "x.8",
      "pads_2" : 0,
      "pads_4" : 0,
      "type" : "tensor_zero_pad",
      "pads_6" : 0,
      "pads_8" : 0,
      "pads_10" : 0,
      "value" : 0,
      "pads_11" : 0,
      "pads_12" : 0,
      "pads_13" : 0,
      "pads_20" : 0,
      "pads_14" : 0,
      "name" : "x.8",
      "pads_22" : 0,
      "pads_21" : 0,
      "pads_23" : 0,
      "nd_mode" : true,
      "pads_24" : 0,
      "pads_17" : 0,
      "pads_32" : 0,
      "pads_18" : 0,
      "pads_33" : 0,
      "pads_19" : 0,
      "pads_34" : 0,
      "pads_27" : 0,
      "pads_28" : 0,
      "pads_42" : 0,
      "pads_43" : 0,
      "pads_29" : 0,
      "pads_37" : 0,
      "pads_41" : 0,
      "pads_38" : 0,
      "pads_31" : 0,
      "pads_39" : 0,
      "pads_36" : 0,
      "pads_40" : 0,
      "pads_26" : 0,
      "pads_16" : 0,
      "pads_30" : 0,
      "pads_45" : 0,
      "pads_35" : 0,
      "pads_25" : 0,
      "pads_15" : 0,
      "pads_1" : 0,
      "pads_44" : 0,
      "pads_46" : 0,
      "pads_3" : 8,
      "pads_47" : 0,
      "pads_48" : 0,
      "pads_5" : 0,
      "pads_49" : 0,
      "pads_50" : 0,
      "pads_7" : 0,
      "pads_51" : 0,
      "pads_52" : 0,
      "pads_9" : 0,
      "pads_53" : 0,
      "pads_54" : 0,
      "pads_55" : 0,
      "pads_56" : 0,
      "pads_57" : 0,
      "pads_58" : 0,
      "pads_59" : 0,
      "pads_60" : 0,
      "pads_61" : 0,
      "pads_62" : 0,
      "pads_63" : 0,
      "weights" : {

      },
      "bottom" : "input.28"
    },
    {
      "pad_r" : 1,
      "fused_relu" : 0,
      "fused_tanh" : 0,
      "debug_info" : "input.29",
      "pad_fill_mode" : 0,
      "pad_b" : 1,
      "pad_l" : 1,
      "top" : "input.29",
      "blob_weights" : 63,
      "K" : 56,
      "blob_biases" : 61,
      "name" : "input.29",
      "has_batch_norm" : 0,
      "type" : "convolution",
      "n_groups" : 56,
      "pad_t" : 1,
      "has_biases" : 1,
      "C" : 56,
      "bottom" : "input.28",
      "weights" : {

      },
      "Nx" : 3,
      "pad_mode" : 0,
      "pad_value" : 0,
      "Ny" : 3,
      "n_parallel" : 1
    },
    {
      "pad_r" : 0,
      "fused_relu" : 0,
      "fused_tanh" : 0,
      "debug_info" : "517",
      "pad_fill_mode" : 0,
      "pad_b" : 0,
      "pad_l" : 0,
      "top" : "517",
      "blob_weights" : 67,
      "K" : 56,
      "blob_biases" : 65,
      "name" : "517",
      "has_batch_norm" : 0,
      "type" : "convolution",
      "n_groups" : 1,
      "pad_t" : 0,
      "has_biases" : 1,
      "C" : 64,
      "bottom" : "input.29",
      "weights" : {

      },
      "Nx" : 1,
      "pad_mode" : 0,
      "pad_value" : 0,
      "Ny" : 1,
      "n_parallel" : 1
    },
    {
      "bottom" : "517,x.8",
      "alpha" : 1,
      "operation" : 0,
      "weights" : {

      },
      "fused_relu" : 0,
      "debug_info" : "input.30",
      "top" : "input.30",
      "type" : "elementwise",
      "name" : "input.30",
      "beta" : 0
    },
    {
      "bottom" : "input.30",
      "weights" : {

      },
      "mode" : 0,
      "debug_info" : "input.31",
      "top" : "input.31",
      "type" : "activation",
      "name" : "input.31"
    },
    {
      "pads_0" : 0,
      "top" : "x.9",
      "debug_info" : "x.9",
      "pads_2" : 0,
      "pads_4" : 0,
      "type" : "tensor_zero_pad",
      "pads_6" : 0,
      "pads_8" : 0,
      "pads_10" : 0,
      "value" : 0,
      "pads_11" : 0,
      "pads_12" : 0,
      "pads_13" : 0,
      "pads_20" : 0,
      "pads_14" : 0,
      "name" : "x.9",
      "pads_22" : 0,
      "pads_21" : 0,
      "pads_23" : 0,
      "nd_mode" : true,
      "pads_24" : 0,
      "pads_17" : 0,
      "pads_32" : 0,
      "pads_18" : 0,
      "pads_33" : 0,
      "pads_19" : 0,
      "pads_34" : 0,
      "pads_27" : 0,
      "pads_28" : 0,
      "pads_42" : 0,
      "pads_43" : 0,
      "pads_29" : 0,
      "pads_37" : 0,
      "pads_41" : 0,
      "pads_38" : 0,
      "pads_31" : 0,
      "pads_39" : 0,
      "pads_36" : 0,
      "pads_40" : 0,
      "pads_26" : 0,
      "pads_16" : 0,
      "pads_30" : 0,
      "pads_45" : 0,
      "pads_35" : 0,
      "pads_25" : 0,
      "pads_15" : 0,
      "pads_1" : 0,
      "pads_44" : 0,
      "pads_46" : 0,
      "pads_3" : 8,
      "pads_47" : 0,
      "pads_48" : 0,
      "pads_5" : 0,
      "pads_49" : 0,
      "pads_50" : 0,
      "pads_7" : 0,
      "pads_51" : 0,
      "pads_52" : 0,
      "pads_9" : 0,
      "pads_53" : 0,
      "pads_54" : 0,
      "pads_55" : 0,
      "pads_56" : 0,
      "pads_57" : 0,
      "pads_58" : 0,
      "pads_59" : 0,
      "pads_60" : 0,
      "pads_61" : 0,
      "pads_62" : 0,
      "pads_63" : 0,
      "weights" : {

      },
      "bottom" : "input.31"
    },
    {
      "pad_r" : 1,
      "fused_relu" : 0,
      "fused_tanh" : 0,
      "debug_info" : "input.32",
      "pad_fill_mode" : 0,
      "pad_b" : 1,
      "pad_l" : 1,
      "top" : "input.32",
      "blob_weights" : 71,
      "K" : 64,
      "blob_biases" : 69,
      "name" : "input.32",
      "has_batch_norm" : 0,
      "type" : "convolution",
      "n_groups" : 64,
      "pad_t" : 1,
      "has_biases" : 1,
      "C" : 64,
      "bottom" : "input.31",
      "weights" : {

      },
      "Nx" : 3,
      "pad_mode" : 0,
      "pad_value" : 0,
      "Ny" : 3,
      "n_parallel" : 1
    },
    {
      "pad_r" : 0,
      "fused_relu" : 0,
      "fused_tanh" : 0,
      "debug_info" : "565",
      "pad_fill_mode" : 0,
      "pad_b" : 0,
      "pad_l" : 0,
      "top" : "565",
      "blob_weights" : 75,
      "K" : 64,
      "blob_biases" : 73,
      "name" : "565",
      "has_batch_norm" : 0,
      "type" : "convolution",
      "n_groups" : 1,
      "pad_t" : 0,
      "has_biases" : 1,
      "C" : 72,
      "bottom" : "input.32",
      "weights" : {

      },
      "Nx" : 1,
      "pad_mode" : 0,
      "pad_value" : 0,
      "Ny" : 1,
      "n_parallel" : 1
    },
    {
      "bottom" : "565,x.9",
      "alpha" : 1,
      "operation" : 0,
      "weights" : {

      },
      "fused_relu" : 0,
      "debug_info" : "input.33",
      "top" : "input.33",
      "type" : "elementwise",
      "name" : "input.33",
      "beta" : 0
    },
    {
      "bottom" : "input.33",
      "weights" : {

      },
      "mode" : 0,
      "debug_info" : "input.34",
      "top" : "input.34",
      "type" : "activation",
      "name" : "input.34"
    },
    {
      "pads_0" : 0,
      "top" : "x.10",
      "debug_info" : "x.10",
      "pads_2" : 0,
      "pads_4" : 0,
      "type" : "tensor_zero_pad",
      "pads_6" : 0,
      "pads_8" : 0,
      "pads_10" : 0,
      "value" : 0,
      "pads_11" : 0,
      "pads_12" : 0,
      "pads_13" : 0,
      "pads_20" : 0,
      "pads_14" : 0,
      "name" : "x.10",
      "pads_22" : 0,
      "pads_21" : 0,
      "pads_23" : 0,
      "nd_mode" : true,
      "pads_24" : 0,
      "pads_17" : 0,
      "pads_32" : 0,
      "pads_18" : 0,
      "pads_33" : 0,
      "pads_19" : 0,
      "pads_34" : 0,
      "pads_27" : 0,
      "pads_28" : 0,
      "pads_42" : 0,
      "pads_43" : 0,
      "pads_29" : 0,
      "pads_37" : 0,
      "pads_41" : 0,
      "pads_38" : 0,
      "pads_31" : 0,
      "pads_39" : 0,
      "pads_36" : 0,
      "pads_40" : 0,
      "pads_26" : 0,
      "pads_16" : 0,
      "pads_30" : 0,
      "pads_45" : 0,
      "pads_35" : 0,
      "pads_25" : 0,
      "pads_15" : 0,
      "pads_1" : 0,
      "pads_44" : 0,
      "pads_46" : 0,
      "pads_3" : 8,
      "pads_47" : 0,
      "pads_48" : 0,
      "pads_5" : 0,
      "pads_49" : 0,
      "pads_50" : 0,
      "pads_7" : 0,
      "pads_51" : 0,
      "pads_52" : 0,
      "pads_9" : 0,
      "pads_53" : 0,
      "pads_54" : 0,
      "pads_55" : 0,
      "pads_56" : 0,
      "pads_57" : 0,
      "pads_58" : 0,
      "pads_59" : 0,
      "pads_60" : 0,
      "pads_61" : 0,
      "pads_62" : 0,
      "pads_63" : 0,
      "weights" : {

      },
      "bottom" : "input.34"
    },
    {
      "pad_r" : 1,
      "fused_relu" : 0,
      "fused_tanh" : 0,
      "debug_info" : "input.35",
      "pad_fill_mode" : 0,
      "pad_b" : 1,
      "pad_l" : 1,
      "top" : "input.35",
      "blob_weights" : 79,
      "K" : 72,
      "blob_biases" : 77,
      "name" : "input.35",
      "has_batch_norm" : 0,
      "type" : "convolution",
      "n_groups" : 72,
      "pad_t" : 1,
      "has_biases" : 1,
      "C" : 72,
      "bottom" : "input.34",
      "weights" : {

      },
      "Nx" : 3,
      "pad_mode" : 0,
      "pad_value" : 0,
      "Ny" : 3,
      "n_parallel" : 1
    },
    {
      "pad_r" : 0,
      "fused_relu" : 0,
      "fused_tanh" : 0,
      "debug_info" : "613",
      "pad_fill_mode" : 0,
      "pad_b" : 0,
      "pad_l" : 0,
      "top" : "613",
      "blob_weights" : 83,
      "K" : 72,
      "blob_biases" : 81,
      "name" : "613",
      "has_batch_norm" : 0,
      "type" : "convolution",
      "n_groups" : 1,
      "pad_t" : 0,
      "has_biases" : 1,
      "C" : 80,
      "bottom" : "input.35",
      "weights" : {

      },
      "Nx" : 1,
      "pad_mode" : 0,
      "pad_value" : 0,
      "Ny" : 1,
      "n_parallel" : 1
    },
    {
      "bottom" : "613,x.10",
      "alpha" : 1,
      "operation" : 0,
      "weights" : {

      },
      "fused_relu" : 0,
      "debug_info" : "input.36",
      "top" : "input.36",
      "type" : "elementwise",
      "name" : "input.36",
      "beta" : 0
    },
    {
      "bottom" : "input.36",
      "weights" : {

      },
      "mode" : 0,
      "debug_info" : "input.37",
      "top" : "input.37",
      "type" : "activation",
      "name" : "input.37"
    },
    {
      "pads_0" : 0,
      "top" : "x.11",
      "debug_info" : "x.11",
      "pads_2" : 0,
      "pads_4" : 0,
      "type" : "tensor_zero_pad",
      "pads_6" : 0,
      "pads_8" : 0,
      "pads_10" : 0,
      "value" : 0,
      "pads_11" : 0,
      "pads_12" : 0,
      "pads_13" : 0,
      "pads_20" : 0,
      "pads_14" : 0,
      "name" : "x.11",
      "pads_22" : 0,
      "pads_21" : 0,
      "pads_23" : 0,
      "nd_mode" : true,
      "pads_24" : 0,
      "pads_17" : 0,
      "pads_32" : 0,
      "pads_18" : 0,
      "pads_33" : 0,
      "pads_19" : 0,
      "pads_34" : 0,
      "pads_27" : 0,
      "pads_28" : 0,
      "pads_42" : 0,
      "pads_43" : 0,
      "pads_29" : 0,
      "pads_37" : 0,
      "pads_41" : 0,
      "pads_38" : 0,
      "pads_31" : 0,
      "pads_39" : 0,
      "pads_36" : 0,
      "pads_40" : 0,
      "pads_26" : 0,
      "pads_16" : 0,
      "pads_30" : 0,
      "pads_45" : 0,
      "pads_35" : 0,
      "pads_25" : 0,
      "pads_15" : 0,
      "pads_1" : 0,
      "pads_44" : 0,
      "pads_46" : 0,
      "pads_3" : 8,
      "pads_47" : 0,
      "pads_48" : 0,
      "pads_5" : 0,
      "pads_49" : 0,
      "pads_50" : 0,
      "pads_7" : 0,
      "pads_51" : 0,
      "pads_52" : 0,
      "pads_9" : 0,
      "pads_53" : 0,
      "pads_54" : 0,
      "pads_55" : 0,
      "pads_56" : 0,
      "pads_57" : 0,
      "pads_58" : 0,
      "pads_59" : 0,
      "pads_60" : 0,
      "pads_61" : 0,
      "pads_62" : 0,
      "pads_63" : 0,
      "weights" : {

      },
      "bottom" : "input.37"
    },
    {
      "pad_r" : 1,
      "fused_relu" : 0,
      "fused_tanh" : 0,
      "debug_info" : "input.38",
      "pad_fill_mode" : 0,
      "pad_b" : 1,
      "pad_l" : 1,
      "top" : "input.38",
      "blob_weights" : 87,
      "K" : 80,
      "blob_biases" : 85,
      "name" : "input.38",
      "has_batch_norm" : 0,
      "type" : "convolution",
      "n_groups" : 80,
      "pad_t" : 1,
      "has_biases" : 1,
      "C" : 80,
      "bottom" : "input.37",
      "weights" : {

      },
      "Nx" : 3,
      "pad_mode" : 0,
      "pad_value" : 0,
      "Ny" : 3,
      "n_parallel" : 1
    },
    {
      "pad_r" : 0,
      "fused_relu" : 0,
      "fused_tanh" : 0,
      "debug_info" : "661",
      "pad_fill_mode" : 0,
      "pad_b" : 0,
      "pad_l" : 0,
      "top" : "661",
      "blob_weights" : 91,
      "K" : 80,
      "blob_biases" : 89,
      "name" : "661",
      "has_batch_norm" : 0,
      "type" : "convolution",
      "n_groups" : 1,
      "pad_t" : 0,
      "has_biases" : 1,
      "C" : 88,
      "bottom" : "input.38",
      "weights" : {

      },
      "Nx" : 1,
      "pad_mode" : 0,
      "pad_value" : 0,
      "Ny" : 1,
      "n_parallel" : 1
    },
    {
      "bottom" : "661,x.11",
      "alpha" : 1,
      "operation" : 0,
      "weights" : {

      },
      "fused_relu" : 0,
      "debug_info" : "input.39",
      "top" : "input.39",
      "type" : "elementwise",
      "name" : "input.39",
      "beta" : 0
    },
    {
      "bottom" : "input.39",
      "weights" : {

      },
      "mode" : 0,
      "debug_info" : "input.40",
      "top" : "input.40",
      "type" : "activation",
      "name" : "input.40"
    },
    {
      "pad_r" : 0,
      "debug_info" : "input.41",
      "pad_fill_mode" : 0,
      "pad_b" : 0,
      "pad_l" : 0,
      "size_x" : 2,
      "top" : "input.41",
      "top_shape_style" : 0,
      "stride_x" : 2,
      "avg_or_max" : 1,
      "average_count_exclude_padding" : 1,
      "type" : "pool",
      "name" : "input.41",
      "pad_t" : 0,
      "stride_y" : 2,
      "bottom" : "input.40",
      "weights" : {

      },
      "pad_mode" : 2,
      "size_y" : 2,
      "pad_value" : 0
    },
    {
      "pads_0" : 0,
      "top" : "x",
      "debug_info" : "x",
      "pads_2" : 0,
      "pads_4" : 0,
      "type" : "tensor_zero_pad",
      "pads_6" : 0,
      "pads_8" : 0,
      "pads_10" : 0,
      "value" : 0,
      "pads_11" : 0,
      "pads_12" : 0,
      "pads_13" : 0,
      "pads_20" : 0,
      "pads_14" : 0,
      "name" : "x",
      "pads_22" : 0,
      "pads_21" : 0,
      "pads_23" : 0,
      "nd_mode" : true,
      "pads_24" : 0,
      "pads_17" : 0,
      "pads_32" : 0,
      "pads_18" : 0,
      "pads_33" : 0,
      "pads_19" : 0,
      "pads_34" : 0,
      "pads_27" : 0,
      "pads_28" : 0,
      "pads_42" : 0,
      "pads_43" : 0,
      "pads_29" : 0,
      "pads_37" : 0,
      "pads_41" : 0,
      "pads_38" : 0,
      "pads_31" : 0,
      "pads_39" : 0,
      "pads_36" : 0,
      "pads_40" : 0,
      "pads_26" : 0,
      "pads_16" : 0,
      "pads_30" : 0,
      "pads_45" : 0,
      "pads_35" : 0,
      "pads_25" : 0,
      "pads_15" : 0,
      "pads_1" : 0,
      "pads_44" : 0,
      "pads_46" : 0,
      "pads_3" : 8,
      "pads_47" : 0,
      "pads_48" : 0,
      "pads_5" : 0,
      "pads_49" : 0,
      "pads_50" : 0,
      "pads_7" : 0,
      "pads_51" : 0,
      "pads_52" : 0,
      "pads_9" : 0,
      "pads_53" : 0,
      "pads_54" : 0,
      "pads_55" : 0,
      "pads_56" : 0,
      "pads_57" : 0,
      "pads_58" : 0,
      "pads_59" : 0,
      "pads_60" : 0,
      "pads_61" : 0,
      "pads_62" : 0,
      "pads_63" : 0,
      "weights" : {

      },
      "bottom" : "input.41"
    },
    {
      "pad_r" : 2,
      "fused_relu" : 0,
      "fused_tanh" : 0,
      "debug_info" : "input.43",
      "pad_fill_mode" : 0,
      "pad_b" : 2,
      "pad_l" : 0,
      "top" : "input.43",
      "blob_weights" : 95,
      "K" : 88,
      "blob_biases" : 93,
      "stride_x" : 2,
      "name" : "input.43",
      "has_batch_norm" : 0,
      "type" : "convolution",
      "n_groups" : 88,
      "pad_t" : 0,
      "stride_y" : 2,
      "has_biases" : 1,
      "C" : 88,
      "bottom" : "input.40",
      "weights" : {

      },
      "Nx" : 3,
      "pad_mode" : 0,
      "pad_value" : 0,
      "Ny" : 3,
      "n_parallel" : 1
    },
    {
      "pad_r" : 0,
      "fused_relu" : 0,
      "fused_tanh" : 0,
      "debug_info" : "730",
      "pad_fill_mode" : 0,
      "pad_b" : 0,
      "pad_l" : 0,
      "top" : "730",
      "blob_weights" : 99,
      "K" : 88,
      "blob_biases" : 97,
      "name" : "730",
      "has_batch_norm" : 0,
      "type" : "convolution",
      "n_groups" : 1,
      "pad_t" : 0,
      "has_biases" : 1,
      "C" : 96,
      "bottom" : "input.43",
      "weights" : {

      },
      "Nx" : 1,
      "pad_mode" : 0,
      "pad_value" : 0,
      "Ny" : 1,
      "n_parallel" : 1
    },
    {
      "bottom" : "730,x",
      "alpha" : 1,
      "operation" : 0,
      "weights" : {

      },
      "fused_relu" : 0,
      "debug_info" : "input.44",
      "top" : "input.44",
      "type" : "elementwise",
      "name" : "input.44",
      "beta" : 0
    },
    {
      "bottom" : "input.44",
      "weights" : {

      },
      "mode" : 0,
      "debug_info" : "input.45",
      "top" : "input.45",
      "type" : "activation",
      "name" : "input.45"
    },
    {
      "pad_r" : 1,
      "fused_relu" : 0,
      "fused_tanh" : 0,
      "debug_info" : "input.46",
      "pad_fill_mode" : 0,
      "pad_b" : 1,
      "pad_l" : 1,
      "top" : "input.46",
      "blob_weights" : 103,
      "K" : 96,
      "blob_biases" : 101,
      "name" : "input.46",
      "has_batch_norm" : 0,
      "type" : "convolution",
      "n_groups" : 96,
      "pad_t" : 1,
      "has_biases" : 1,
      "C" : 96,
      "bottom" : "input.45",
      "weights" : {

      },
      "Nx" : 3,
      "pad_mode" : 0,
      "pad_value" : 0,
      "Ny" : 3,
      "n_parallel" : 1
    },
    {
      "pad_r" : 0,
      "fused_relu" : 0,
      "fused_tanh" : 0,
      "debug_info" : "769",
      "pad_fill_mode" : 0,
      "pad_b" : 0,
      "pad_l" : 0,
      "top" : "769",
      "blob_weights" : 107,
      "K" : 96,
      "blob_biases" : 105,
      "name" : "769",
      "has_batch_norm" : 0,
      "type" : "convolution",
      "n_groups" : 1,
      "pad_t" : 0,
      "has_biases" : 1,
      "C" : 96,
      "bottom" : "input.46",
      "weights" : {

      },
      "Nx" : 1,
      "pad_mode" : 0,
      "pad_value" : 0,
      "Ny" : 1,
      "n_parallel" : 1
    },
    {
      "bottom" : "769,input.45",
      "alpha" : 1,
      "operation" : 0,
      "weights" : {

      },
      "fused_relu" : 0,
      "debug_info" : "input.47",
      "top" : "input.47",
      "type" : "elementwise",
      "name" : "input.47",
      "beta" : 0
    },
    {
      "bottom" : "input.47",
      "weights" : {

      },
      "mode" : 0,
      "debug_info" : "input.48",
      "top" : "input.48",
      "type" : "activation",
      "name" : "input.48"
    },
    {
      "pad_r" : 1,
      "fused_relu" : 0,
      "fused_tanh" : 0,
      "debug_info" : "input.49",
      "pad_fill_mode" : 0,
      "pad_b" : 1,
      "pad_l" : 1,
      "top" : "input.49",
      "blob_weights" : 111,
      "K" : 96,
      "blob_biases" : 109,
      "name" : "input.49",
      "has_batch_norm" : 0,
      "type" : "convolution",
      "n_groups" : 96,
      "pad_t" : 1,
      "has_biases" : 1,
      "C" : 96,
      "bottom" : "input.48",
      "weights" : {

      },
      "Nx" : 3,
      "pad_mode" : 0,
      "pad_value" : 0,
      "Ny" : 3,
      "n_parallel" : 1
    },
    {
      "pad_r" : 0,
      "fused_relu" : 0,
      "fused_tanh" : 0,
      "debug_info" : "808",
      "pad_fill_mode" : 0,
      "pad_b" : 0,
      "pad_l" : 0,
      "top" : "808",
      "blob_weights" : 115,
      "K" : 96,
      "blob_biases" : 113,
      "name" : "808",
      "has_batch_norm" : 0,
      "type" : "convolution",
      "n_groups" : 1,
      "pad_t" : 0,
      "has_biases" : 1,
      "C" : 96,
      "bottom" : "input.49",
      "weights" : {

      },
      "Nx" : 1,
      "pad_mode" : 0,
      "pad_value" : 0,
      "Ny" : 1,
      "n_parallel" : 1
    },
    {
      "bottom" : "808,input.48",
      "alpha" : 1,
      "operation" : 0,
      "weights" : {

      },
      "fused_relu" : 0,
      "debug_info" : "input.50",
      "top" : "input.50",
      "type" : "elementwise",
      "name" : "input.50",
      "beta" : 0
    },
    {
      "bottom" : "input.50",
      "weights" : {

      },
      "mode" : 0,
      "debug_info" : "input.51",
      "top" : "input.51",
      "type" : "activation",
      "name" : "input.51"
    },
    {
      "pad_r" : 1,
      "fused_relu" : 0,
      "fused_tanh" : 0,
      "debug_info" : "input.52",
      "pad_fill_mode" : 0,
      "pad_b" : 1,
      "pad_l" : 1,
      "top" : "input.52",
      "blob_weights" : 119,
      "K" : 96,
      "blob_biases" : 117,
      "name" : "input.52",
      "has_batch_norm" : 0,
      "type" : "convolution",
      "n_groups" : 96,
      "pad_t" : 1,
      "has_biases" : 1,
      "C" : 96,
      "bottom" : "input.51",
      "weights" : {

      },
      "Nx" : 3,
      "pad_mode" : 0,
      "pad_value" : 0,
      "Ny" : 3,
      "n_parallel" : 1
    },
    {
      "pad_r" : 0,
      "fused_relu" : 0,
      "fused_tanh" : 0,
      "debug_info" : "847",
      "pad_fill_mode" : 0,
      "pad_b" : 0,
      "pad_l" : 0,
      "top" : "847",
      "blob_weights" : 123,
      "K" : 96,
      "blob_biases" : 121,
      "name" : "847",
      "has_batch_norm" : 0,
      "type" : "convolution",
      "n_groups" : 1,
      "pad_t" : 0,
      "has_biases" : 1,
      "C" : 96,
      "bottom" : "input.52",
      "weights" : {

      },
      "Nx" : 1,
      "pad_mode" : 0,
      "pad_value" : 0,
      "Ny" : 1,
      "n_parallel" : 1
    },
    {
      "bottom" : "847,input.51",
      "alpha" : 1,
      "operation" : 0,
      "weights" : {

      },
      "fused_relu" : 0,
      "debug_info" : "input.53",
      "top" : "input.53",
      "type" : "elementwise",
      "name" : "input.53",
      "beta" : 0
    },
    {
      "bottom" : "input.53",
      "weights" : {

      },
      "mode" : 0,
      "debug_info" : "input.54",
      "top" : "input.54",
      "type" : "activation",
      "name" : "input.54"
    },
    {
      "pad_r" : 1,
      "fused_relu" : 0,
      "fused_tanh" : 0,
      "debug_info" : "input.55",
      "pad_fill_mode" : 0,
      "pad_b" : 1,
      "pad_l" : 1,
      "top" : "input.55",
      "blob_weights" : 127,
      "K" : 96,
      "blob_biases" : 125,
      "name" : "input.55",
      "has_batch_norm" : 0,
      "type" : "convolution",
      "n_groups" : 96,
      "pad_t" : 1,
      "has_biases" : 1,
      "C" : 96,
      "bottom" : "input.54",
      "weights" : {

      },
      "Nx" : 3,
      "pad_mode" : 0,
      "pad_value" : 0,
      "Ny" : 3,
      "n_parallel" : 1
    },
    {
      "pad_r" : 0,
      "fused_relu" : 0,
      "fused_tanh" : 0,
      "debug_info" : "886",
      "pad_fill_mode" : 0,
      "pad_b" : 0,
      "pad_l" : 0,
      "top" : "886",
      "blob_weights" : 131,
      "K" : 96,
      "blob_biases" : 129,
      "name" : "886",
      "has_batch_norm" : 0,
      "type" : "convolution",
      "n_groups" : 1,
      "pad_t" : 0,
      "has_biases" : 1,
      "C" : 96,
      "bottom" : "input.55",
      "weights" : {

      },
      "Nx" : 1,
      "pad_mode" : 0,
      "pad_value" : 0,
      "Ny" : 1,
      "n_parallel" : 1
    },
    {
      "bottom" : "886,input.54",
      "alpha" : 1,
      "operation" : 0,
      "weights" : {

      },
      "fused_relu" : 0,
      "debug_info" : "input.56",
      "top" : "input.56",
      "type" : "elementwise",
      "name" : "input.56",
      "beta" : 0
    },
    {
      "bottom" : "input.56",
      "weights" : {

      },
      "mode" : 0,
      "debug_info" : "input",
      "top" : "input",
      "type" : "activation",
      "name" : "input"
    },
    {
      "pad_r" : 0,
      "fused_relu" : 0,
      "fused_tanh" : 0,
      "debug_info" : "c1.1",
      "pad_fill_mode" : 0,
      "pad_b" : 0,
      "pad_l" : 0,
      "top" : "c1.1",
      "blob_weights" : 135,
      "K" : 88,
      "blob_biases" : 133,
      "name" : "c1.1",
      "has_batch_norm" : 0,
      "type" : "convolution",
      "n_groups" : 1,
      "pad_t" : 0,
      "has_biases" : 1,
      "C" : 2,
      "bottom" : "input.40",
      "weights" : {

      },
      "Nx" : 1,
      "pad_mode" : 0,
      "pad_value" : 0,
      "Ny" : 1,
      "n_parallel" : 1
    },
    {
      "axis_h" : 0,
      "axis_w" : 2,
      "bottom" : "c1.1",
      "axis_k" : 1,
      "axis_n" : 3,
      "axis_seq" : 4,
      "weights" : {

      },
      "debug_info" : "c1.2",
      "top" : "c1.2",
      "type" : "transpose",
      "name" : "c1.2"
    },
    {
      "name" : "c1",
      "weights" : {

      },
      "dst_w" : 1,
      "version" : 1,
      "dst_n" : 1,
      "dst_nd_rank" : 3,
      "type" : "reshape",
      "dst_h" : -1,
      "mode" : 0,
      "dynamic_shape" : false,
      "bottom" : "c1.2",
      "debug_info" : "c1",
      "dst_seq" : 1,
      "dst_k" : 1,
      "top" : "c1"
    },
    {
      "pad_r" : 0,
      "fused_relu" : 0,
      "fused_tanh" : 0,
      "debug_info" : "c2.1",
      "pad_fill_mode" : 0,
      "pad_b" : 0,
      "pad_l" : 0,
      "top" : "c2.1",
      "blob_weights" : 139,
      "K" : 96,
      "blob_biases" : 137,
      "name" : "c2.1",
      "has_batch_norm" : 0,
      "type" : "convolution",
      "n_groups" : 1,
      "pad_t" : 0,
      "has_biases" : 1,
      "C" : 6,
      "bottom" : "input",
      "weights" : {

      },
      "Nx" : 1,
      "pad_mode" : 0,
      "pad_value" : 0,
      "Ny" : 1,
      "n_parallel" : 1
    },
    {
      "axis_h" : 0,
      "axis_w" : 2,
      "bottom" : "c2.1",
      "axis_k" : 1,
      "axis_n" : 3,
      "axis_seq" : 4,
      "weights" : {

      },
      "debug_info" : "c2.2",
      "top" : "c2.2",
      "type" : "transpose",
      "name" : "c2.2"
    },
    {
      "name" : "c2",
      "weights" : {

      },
      "dst_w" : 1,
      "version" : 1,
      "dst_n" : 1,
      "dst_nd_rank" : 3,
      "type" : "reshape",
      "dst_h" : -1,
      "mode" : 0,
      "dynamic_shape" : false,
      "bottom" : "c2.2",
      "debug_info" : "c2",
      "dst_seq" : 1,
      "dst_k" : 1,
      "top" : "c2"
    },
    {
      "bottom" : "c1,c2",
      "weights" : {

      },
      "nd_mode" : true,
      "axis" : 1,
      "debug_info" : "948",
      "top" : "948",
      "type" : "general_concat",
      "name" : "948"
    },
    {
      "pad_r" : 0,
      "fused_relu" : 0,
      "fused_tanh" : 0,
      "debug_info" : "r1.1",
      "pad_fill_mode" : 0,
      "pad_b" : 0,
      "pad_l" : 0,
      "top" : "r1.1",
      "blob_weights" : 143,
      "K" : 88,
      "blob_biases" : 141,
      "name" : "r1.1",
      "has_batch_norm" : 0,
      "type" : "convolution",
      "n_groups" : 1,
      "pad_t" : 0,
      "has_biases" : 1,
      "C" : 32,
      "bottom" : "input.40",
      "weights" : {

      },
      "Nx" : 1,
      "pad_mode" : 0,
      "pad_value" : 0,
      "Ny" : 1,
      "n_parallel" : 1
    },
    {
      "axis_h" : 0,
      "axis_w" : 2,
      "bottom" : "r1.1",
      "axis_k" : 1,
      "axis_n" : 3,
      "axis_seq" : 4,
      "weights" : {

      },
      "debug_info" : "r1.2",
      "top" : "r1.2",
      "type" : "transpose",
      "name" : "r1.2"
    },
    {
      "name" : "r1",
      "weights" : {

      },
      "dst_w" : 16,
      "version" : 1,
      "dst_n" : 1,
      "dst_nd_rank" : 3,
      "type" : "reshape",
      "dst_h" : -1,
      "mode" : 0,
      "dynamic_shape" : false,
      "bottom" : "r1.2",
      "debug_info" : "r1",
      "dst_seq" : 1,
      "dst_k" : 1,
      "top" : "r1"
    },
    {
      "pad_r" : 0,
      "fused_relu" : 0,
      "fused_tanh" : 0,
      "debug_info" : "r2.1",
      "pad_fill_mode" : 0,
      "pad_b" : 0,
      "pad_l" : 0,
      "top" : "r2.1",
      "blob_weights" : 147,
      "K" : 96,
      "blob_biases" : 145,
      "name" : "r2.1",
      "has_batch_norm" : 0,
      "type" : "convolution",
      "n_groups" : 1,
      "pad_t" : 0,
      "has_biases" : 1,
      "C" : 96,
      "bottom" : "input",
      "weights" : {

      },
      "Nx" : 1,
      "pad_mode" : 0,
      "pad_value" : 0,
      "Ny" : 1,
      "n_parallel" : 1
    },
    {
      "axis_h" : 0,
      "axis_w" : 2,
      "bottom" : "r2.1",
      "axis_k" : 1,
      "axis_n" : 3,
      "axis_seq" : 4,
      "weights" : {

      },
      "debug_info" : "r2.2",
      "top" : "r2.2",
      "type" : "transpose",
      "name" : "r2.2"
    },
    {
      "name" : "r2",
      "weights" : {

      },
      "dst_w" : 16,
      "version" : 1,
      "dst_n" : 1,
      "dst_nd_rank" : 3,
      "type" : "reshape",
      "dst_h" : -1,
      "mode" : 0,
      "dynamic_shape" : false,
      "bottom" : "r2.2",
      "debug_info" : "r2",
      "dst_seq" : 1,
      "dst_k" : 1,
      "top" : "r2"
    },
    {
      "bottom" : "r1,r2",
      "weights" : {

      },
      "nd_mode" : true,
      "axis" : 1,
      "debug_info" : "1007",
      "top" : "1007",
      "type" : "general_concat",
      "name" : "1007"
    },
    {
      "bottom" : "948",
      "weights" : {

      },
      "mode" : 3,
      "debug_info" : "1011",
      "top" : "1011",
      "type" : "activation",
      "name" : "1011",
      "attributes" : {
        "is_output" : 1
      }
    },
    {
      "size_of_axes" : 0,
      "bottom" : "1007",
      "weights" : {

      },
      "nd_axis" : 0,
      "debug_info" : "raw_boxes",
      "version" : 1,
      "top" : "raw_boxes",
      "type" : "squeeze",
      "name" : "raw_boxes",
      "squeeze_all" : true
    },
    {
      "begin_n" : 0,
      "static_sizes_k" : 0,
      "end_mask_h" : false,
      "end_w" : 896,
      "end_h" : 1,
      "begin_h" : 0,
      "stride_n" : 1,
      "end_seq" : 1,
      "begin_mask_seq" : false,
      "begin_mask_h" : false,
      "squeeze_mask_h" : false,
      "stride_k" : 1,
      "type" : "general_slice",
      "begin_mask_k" : false,
      "static_sizes_w" : 0,
      "begin_w" : 0,
      "end_mask_k" : false,
      "use_static_sizes" : false,
      "stride_h" : 1,
      "static_sizes_n" : 0,
      "begin_mask_n" : false,
      "weights" : {

      },
      "name" : "1020_slice_by_index",
      "stride_seq" : 1,
      "end_k" : 1,
      "static_sizes_seq" : 0,
      "top" : "1020_slice_by_index",
      "begin_seq" : 0,
      "squeeze_mask_k" : false,
      "begin_k" : 0,
      "end_mask_w" : true,
      "end_mask_seq" : false,
      "end_mask_n" : false,
      "debug_info" : "1020_slice_by_index",
      "stride_w" : 1,
      "squeeze_mask_seq" : false,
      "static_sizes_h" : 0,
      "begin_mask_w" : false,
      "bottom" : "raw_boxes",
      "end_n" : 1,
      "squeeze_mask_w" : false,
      "squeeze_mask_n" : false
    },
    {
      "size_of_axes" : 1,
      "bottom" : "1020_slice_by_index",
      "axes_0" : 1,
      "weights" : {

      },
      "nd_axis" : 0,
      "debug_info" : "1020_squeeze",
      "version" : 1,
      "top" : "1020_squeeze",
      "type" : "squeeze",
      "name" : "1020_squeeze"
    },
    {
      "bottom" : "1020_squeeze",
      "alpha" : 0.0078125,
      "operation" : 1,
      "weights" : {

      },
      "fused_relu" : 0,
      "debug_info" : "_inversed_1022",
      "top" : "_inversed_1022",
      "type" : "elementwise",
      "name" : "_inversed_1022",
      "beta" : 0
    },
    {
      "top" : "1030_squeeze",
      "w" : 896,
      "h" : 1,
      "name" : "1030_squeeze",
      "nd_rank" : 1,
      "type" : "load_constant",
      "k" : 1,
      "bottom" : "",
      "debug_info" : "1030_squeeze",
      "n" : 1,
      "weights" : {

      },
      "constant_blob" : 149
    },
    {
      "bottom" : "_inversed_1022,1030_squeeze",
      "alpha" : 1,
      "operation" : 1,
      "weights" : {

      },
      "fused_relu" : 0,
      "debug_info" : "1031",
      "top" : "1031",
      "type" : "elementwise",
      "name" : "1031",
      "beta" : 0
    },
    {
      "top" : "1039_squeeze",
      "w" : 896,
      "h" : 1,
      "name" : "1039_squeeze",
      "nd_rank" : 1,
      "type" : "load_constant",
      "k" : 1,
      "bottom" : "",
      "debug_info" : "1039_squeeze",
      "n" : 1,
      "weights" : {

      },
      "constant_blob" : 151
    },
    {
      "bottom" : "1031,1039_squeeze",
      "alpha" : 1,
      "operation" : 0,
      "weights" : {

      },
      "fused_relu" : 0,
      "debug_info" : "x_center",
      "top" : "x_center",
      "type" : "elementwise",
      "name" : "x_center",
      "beta" : 0
    },
    {
      "begin_n" : 0,
      "static_sizes_k" : 0,
      "end_mask_h" : false,
      "end_w" : 896,
      "end_h" : 2,
      "begin_h" : 1,
      "stride_n" : 1,
      "end_seq" : 1,
      "begin_mask_seq" : false,
      "begin_mask_h" : false,
      "squeeze_mask_h" : false,
      "stride_k" : 1,
      "type" : "general_slice",
      "begin_mask_k" : false,
      "static_sizes_w" : 0,
      "begin_w" : 0,
      "end_mask_k" : false,
      "use_static_sizes" : false,
      "stride_h" : 1,
      "static_sizes_n" : 0,
      "begin_mask_n" : false,
      "weights" : {

      },
      "name" : "1049_slice_by_index",
      "stride_seq" : 1,
      "end_k" : 1,
      "static_sizes_seq" : 0,
      "top" : "1049_slice_by_index",
      "begin_seq" : 0,
      "squeeze_mask_k" : false,
      "begin_k" : 0,
      "end_mask_w" : true,
      "end_mask_seq" : false,
      "end_mask_n" : false,
      "debug_info" : "1049_slice_by_index",
      "stride_w" : 1,
      "squeeze_mask_seq" : false,
      "static_sizes_h" : 0,
      "begin_mask_w" : false,
      "bottom" : "raw_boxes",
      "end_n" : 1,
      "squeeze_mask_w" : false,
      "squeeze_mask_n" : false
    },
    {
      "size_of_axes" : 1,
      "bottom" : "1049_slice_by_index",
      "axes_0" : 1,
      "weights" : {

      },
      "nd_axis" : 0,
      "debug_info" : "1049_squeeze",
      "version" : 1,
      "top" : "1049_squeeze",
      "type" : "squeeze",
      "name" : "1049_squeeze"
    },
    {
      "bottom" : "1049_squeeze",
      "alpha" : 0.0078125,
      "operation" : 1,
      "weights" : {

      },
      "fused_relu" : 0,
      "debug_info" : "_inversed_1051",
      "top" : "_inversed_1051",
      "type" : "elementwise",
      "name" : "_inversed_1051",
      "beta" : 0
    },
    {
      "top" : "1059_squeeze",
      "w" : 896,
      "h" : 1,
      "name" : "1059_squeeze",
      "nd_rank" : 1,
      "type" : "load_constant",
      "k" : 1,
      "bottom" : "",
      "debug_info" : "1059_squeeze",
      "n" : 1,
      "weights" : {

      },
      "constant_blob" : 153
    },
    {
      "bottom" : "_inversed_1051,1059_squeeze",
      "alpha" : 1,
      "operation" : 1,
      "weights" : {

      },
      "fused_relu" : 0,
      "debug_info" : "1060",
      "top" : "1060",
      "type" : "elementwise",
      "name" : "1060",
      "beta" : 0
    },
    {
      "top" : "1068_squeeze",
      "w" : 896,
      "h" : 1,
      "name" : "1068_squeeze",
      "nd_rank" : 1,
      "type" : "load_constant",
      "k" : 1,
      "bottom" : "",
      "debug_info" : "1068_squeeze",
      "n" : 1,
      "weights" : {

      },
      "constant_blob" : 155
    },
    {
      "bottom" : "1060,1068_squeeze",
      "alpha" : 1,
      "operation" : 0,
      "weights" : {

      },
      "fused_relu" : 0,
      "debug_info" : "y_center",
      "top" : "y_center",
      "type" : "elementwise",
      "name" : "y_center",
      "beta" : 0
    },
    {
      "begin_n" : 0,
      "static_sizes_k" : 0,
      "end_mask_h" : false,
      "end_w" : 896,
      "end_h" : 3,
      "begin_h" : 2,
      "stride_n" : 1,
      "end_seq" : 1,
      "begin_mask_seq" : false,
      "begin_mask_h" : false,
      "squeeze_mask_h" : false,
      "stride_k" : 1,
      "type" : "general_slice",
      "begin_mask_k" : false,
      "static_sizes_w" : 0,
      "begin_w" : 0,
      "end_mask_k" : false,
      "use_static_sizes" : false,
      "stride_h" : 1,
      "static_sizes_n" : 0,
      "begin_mask_n" : false,
      "weights" : {

      },
      "name" : "1078_slice_by_index",
      "stride_seq" : 1,
      "end_k" : 1,
      "static_sizes_seq" : 0,
      "top" : "1078_slice_by_index",
      "begin_seq" : 0,
      "squeeze_mask_k" : false,
      "begin_k" : 0,
      "end_mask_w" : true,
      "end_mask_seq" : false,
      "end_mask_n" : false,
      "debug_info" : "1078_slice_by_index",
      "stride_w" : 1,
      "squeeze_mask_seq" : false,
      "static_sizes_h" : 0,
      "begin_mask_w" : false,
      "bottom" : "raw_boxes",
      "end_n" : 1,
      "squeeze_mask_w" : false,
      "squeeze_mask_n" : false
    },
    {
      "size_of_axes" : 1,
      "bottom" : "1078_slice_by_index",
      "axes_0" : 1,
      "weights" : {

      },
      "nd_axis" : 0,
      "debug_info" : "1078_squeeze",
      "version" : 1,
      "top" : "1078_squeeze",
      "type" : "squeeze",
      "name" : "1078_squeeze"
    },
    {
      "bottom" : "1078_squeeze",
      "alpha" : 0.0078125,
      "operation" : 1,
      "weights" : {

      },
      "fused_relu" : 0,
      "debug_info" : "_inversed_1080",
      "top" : "_inversed_1080",
      "type" : "elementwise",
      "name" : "_inversed_1080",
      "beta" : 0
    },
    {
      "top" : "1088_squeeze",
      "w" : 896,
      "h" : 1,
      "name" : "1088_squeeze",
      "nd_rank" : 1,
      "type" : "load_constant",
      "k" : 1,
      "bottom" : "",
      "debug_info" : "1088_squeeze",
      "n" : 1,
      "weights" : {

      },
      "constant_blob" : 157
    },
    {
      "bottom" : "_inversed_1080,1088_squeeze",
      "alpha" : 1,
      "operation" : 1,
      "weights" : {

      },
      "fused_relu" : 0,
      "debug_info" : "w",
      "top" : "w",
      "type" : "elementwise",
      "name" : "w",
      "beta" : 0
    },
    {
      "begin_n" : 0,
      "static_sizes_k" : 0,
      "end_mask_h" : false,
      "end_w" : 896,
      "end_h" : 4,
      "begin_h" : 3,
      "stride_n" : 1,
      "end_seq" : 1,
      "begin_mask_seq" : false,
      "begin_mask_h" : false,
      "squeeze_mask_h" : false,
      "stride_k" : 1,
      "type" : "general_slice",
      "begin_mask_k" : false,
      "static_sizes_w" : 0,
      "begin_w" : 0,
      "end_mask_k" : false,
      "use_static_sizes" : false,
      "stride_h" : 1,
      "static_sizes_n" : 0,
      "begin_mask_n" : false,
      "weights" : {

      },
      "name" : "1097_slice_by_index",
      "stride_seq" : 1,
      "end_k" : 1,
      "static_sizes_seq" : 0,
      "top" : "1097_slice_by_index",
      "begin_seq" : 0,
      "squeeze_mask_k" : false,
      "begin_k" : 0,
      "end_mask_w" : true,
      "end_mask_seq" : false,
      "end_mask_n" : false,
      "debug_info" : "1097_slice_by_index",
      "stride_w" : 1,
      "squeeze_mask_seq" : false,
      "static_sizes_h" : 0,
      "begin_mask_w" : false,
      "bottom" : "raw_boxes",
      "end_n" : 1,
      "squeeze_mask_w" : false,
      "squeeze_mask_n" : false
    },
    {
      "size_of_axes" : 1,
      "bottom" : "1097_slice_by_index",
      "axes_0" : 1,
      "weights" : {

      },
      "nd_axis" : 0,
      "debug_info" : "1097_squeeze",
      "version" : 1,
      "top" : "1097_squeeze",
      "type" : "squeeze",
      "name" : "1097_squeeze"
    },
    {
      "bottom" : "1097_squeeze",
      "alpha" : 0.0078125,
      "operation" : 1,
      "weights" : {

      },
      "fused_relu" : 0,
      "debug_info" : "_inversed_1099",
      "top" : "_inversed_1099",
      "type" : "elementwise",
      "name" : "_inversed_1099",
      "beta" : 0
    },
    {
      "top" : "1107_squeeze",
      "w" : 896,
      "h" : 1,
      "name" : "1107_squeeze",
      "nd_rank" : 1,
      "type" : "load_constant",
      "k" : 1,
      "bottom" : "",
      "debug_info" : "1107_squeeze",
      "n" : 1,
      "weights" : {

      },
      "constant_blob" : 159
    },
    {
      "bottom" : "_inversed_1099,1107_squeeze",
      "alpha" : 1,
      "operation" : 1,
      "weights" : {

      },
      "fused_relu" : 0,
      "debug_info" : "h",
      "top" : "h",
      "type" : "elementwise",
      "name" : "h",
      "beta" : 0
    },
    {
      "bottom" : "w",
      "alpha" : 0.5,
      "operation" : 1,
      "weights" : {

      },
      "fused_relu" : 0,
      "debug_info" : "_inversed_1110",
      "top" : "_inversed_1110",
      "type" : "elementwise",
      "name" : "_inversed_1110",
      "beta" : 0
    },
    {
      "bottom" : "x_center,_inversed_1110",
      "alpha" : 1,
      "operation" : 33,
      "weights" : {

      },
      "fused_relu" : 0,
      "debug_info" : "1112",
      "nd_mode" : true,
      "top" : "1112",
      "type" : "elementwise",
      "name" : "1112",
      "beta" : 0
    },
    {
      "bottom" : "h",
      "alpha" : 0.5,
      "operation" : 1,
      "weights" : {

      },
      "fused_relu" : 0,
      "debug_info" : "_inversed_1114",
      "top" : "_inversed_1114",
      "type" : "elementwise",
      "name" : "_inversed_1114",
      "beta" : 0
    },
    {
      "bottom" : "y_center,_inversed_1114",
      "alpha" : 1,
      "operation" : 33,
      "weights" : {

      },
      "fused_relu" : 0,
      "debug_info" : "1116",
      "nd_mode" : true,
      "top" : "1116",
      "type" : "elementwise",
      "name" : "1116",
      "beta" : 0
    },
    {
      "bottom" : "w",
      "alpha" : 0.5,
      "operation" : 1,
      "weights" : {

      },
      "fused_relu" : 0,
      "debug_info" : "_inversed_1118",
      "top" : "_inversed_1118",
      "type" : "elementwise",
      "name" : "_inversed_1118",
      "beta" : 0
    },
    {
      "bottom" : "x_center,_inversed_1118",
      "alpha" : 1,
      "operation" : 0,
      "weights" : {

      },
      "fused_relu" : 0,
      "debug_info" : "1120",
      "top" : "1120",
      "type" : "elementwise",
      "name" : "1120",
      "beta" : 0
    },
    {
      "bottom" : "h",
      "alpha" : 0.5,
      "operation" : 1,
      "weights" : {

      },
      "fused_relu" : 0,
      "debug_info" : "_inversed_1122",
      "top" : "_inversed_1122",
      "type" : "elementwise",
      "name" : "_inversed_1122",
      "beta" : 0
    },
    {
      "bottom" : "y_center,_inversed_1122",
      "alpha" : 1,
      "operation" : 0,
      "weights" : {

      },
      "fused_relu" : 0,
      "debug_info" : "1124",
      "top" : "1124",
      "type" : "elementwise",
      "name" : "1124",
      "beta" : 0
    },
    {
      "begin_n" : 0,
      "static_sizes_k" : 0,
      "end_mask_h" : false,
      "end_w" : 896,
      "end_h" : 5,
      "begin_h" : 4,
      "stride_n" : 1,
      "end_seq" : 1,
      "begin_mask_seq" : false,
      "begin_mask_h" : false,
      "squeeze_mask_h" : false,
      "stride_k" : 1,
      "type" : "general_slice",
      "begin_mask_k" : false,
      "static_sizes_w" : 0,
      "begin_w" : 0,
      "end_mask_k" : false,
      "use_static_sizes" : false,
      "stride_h" : 1,
      "static_sizes_n" : 0,
      "begin_mask_n" : false,
      "weights" : {

      },
      "name" : "1132_slice_by_index",
      "stride_seq" : 1,
      "end_k" : 1,
      "static_sizes_seq" : 0,
      "top" : "1132_slice_by_index",
      "begin_seq" : 0,
      "squeeze_mask_k" : false,
      "begin_k" : 0,
      "end_mask_w" : true,
      "end_mask_seq" : false,
      "end_mask_n" : false,
      "debug_info" : "1132_slice_by_index",
      "stride_w" : 1,
      "squeeze_mask_seq" : false,
      "static_sizes_h" : 0,
      "begin_mask_w" : false,
      "bottom" : "raw_boxes",
      "end_n" : 1,
      "squeeze_mask_w" : false,
      "squeeze_mask_n" : false
    },
    {
      "size_of_axes" : 1,
      "bottom" : "1132_slice_by_index",
      "axes_0" : 1,
      "weights" : {

      },
      "nd_axis" : 0,
      "debug_info" : "1132_squeeze",
      "version" : 1,
      "top" : "1132_squeeze",
      "type" : "squeeze",
      "name" : "1132_squeeze"
    },
    {
      "bottom" : "1132_squeeze",
      "alpha" : 0.0078125,
      "operation" : 1,
      "weights" : {

      },
      "fused_relu" : 0,
      "debug_info" : "_inversed_1134",
      "top" : "_inversed_1134",
      "type" : "elementwise",
      "name" : "_inversed_1134",
      "beta" : 0
    },
    {
      "top" : "1142_squeeze",
      "w" : 896,
      "h" : 1,
      "name" : "1142_squeeze",
      "nd_rank" : 1,
      "type" : "load_constant",
      "k" : 1,
      "bottom" : "",
      "debug_info" : "1142_squeeze",
      "n" : 1,
      "weights" : {

      },
      "constant_blob" : 161
    },
    {
      "bottom" : "_inversed_1134,1142_squeeze",
      "alpha" : 1,
      "operation" : 1,
      "weights" : {

      },
      "fused_relu" : 0,
      "debug_info" : "1143",
      "top" : "1143",
      "type" : "elementwise",
      "name" : "1143",
      "beta" : 0
    },
    {
      "top" : "1151_squeeze",
      "w" : 896,
      "h" : 1,
      "name" : "1151_squeeze",
      "nd_rank" : 1,
      "type" : "load_constant",
      "k" : 1,
      "bottom" : "",
      "debug_info" : "1151_squeeze",
      "n" : 1,
      "weights" : {

      },
      "constant_blob" : 163
    },
    {
      "bottom" : "1143,1151_squeeze",
      "alpha" : 1,
      "operation" : 0,
      "weights" : {

      },
      "fused_relu" : 0,
      "debug_info" : "1153",
      "top" : "1153",
      "type" : "elementwise",
      "name" : "1153",
      "beta" : 0
    },
    {
      "begin_n" : 0,
      "static_sizes_k" : 0,
      "end_mask_h" : false,
      "end_w" : 896,
      "end_h" : 6,
      "begin_h" : 5,
      "stride_n" : 1,
      "end_seq" : 1,
      "begin_mask_seq" : false,
      "begin_mask_h" : false,
      "squeeze_mask_h" : false,
      "stride_k" : 1,
      "type" : "general_slice",
      "begin_mask_k" : false,
      "static_sizes_w" : 0,
      "begin_w" : 0,
      "end_mask_k" : false,
      "use_static_sizes" : false,
      "stride_h" : 1,
      "static_sizes_n" : 0,
      "begin_mask_n" : false,
      "weights" : {

      },
      "name" : "1161_slice_by_index",
      "stride_seq" : 1,
      "end_k" : 1,
      "static_sizes_seq" : 0,
      "top" : "1161_slice_by_index",
      "begin_seq" : 0,
      "squeeze_mask_k" : false,
      "begin_k" : 0,
      "end_mask_w" : true,
      "end_mask_seq" : false,
      "end_mask_n" : false,
      "debug_info" : "1161_slice_by_index",
      "stride_w" : 1,
      "squeeze_mask_seq" : false,
      "static_sizes_h" : 0,
      "begin_mask_w" : false,
      "bottom" : "raw_boxes",
      "end_n" : 1,
      "squeeze_mask_w" : false,
      "squeeze_mask_n" : false
    },
    {
      "size_of_axes" : 1,
      "bottom" : "1161_slice_by_index",
      "axes_0" : 1,
      "weights" : {

      },
      "nd_axis" : 0,
      "debug_info" : "1161_squeeze",
      "version" : 1,
      "top" : "1161_squeeze",
      "type" : "squeeze",
      "name" : "1161_squeeze"
    },
    {
      "bottom" : "1161_squeeze",
      "alpha" : 0.0078125,
      "operation" : 1,
      "weights" : {

      },
      "fused_relu" : 0,
      "debug_info" : "_inversed_1163",
      "top" : "_inversed_1163",
      "type" : "elementwise",
      "name" : "_inversed_1163",
      "beta" : 0
    },
    {
      "top" : "1171_squeeze",
      "w" : 896,
      "h" : 1,
      "name" : "1171_squeeze",
      "nd_rank" : 1,
      "type" : "load_constant",
      "k" : 1,
      "bottom" : "",
      "debug_info" : "1171_squeeze",
      "n" : 1,
      "weights" : {

      },
      "constant_blob" : 165
    },
    {
      "bottom" : "_inversed_1163,1171_squeeze",
      "alpha" : 1,
      "operation" : 1,
      "weights" : {

      },
      "fused_relu" : 0,
      "debug_info" : "1172",
      "top" : "1172",
      "type" : "elementwise",
      "name" : "1172",
      "beta" : 0
    },
    {
      "top" : "1180_squeeze",
      "w" : 896,
      "h" : 1,
      "name" : "1180_squeeze",
      "nd_rank" : 1,
      "type" : "load_constant",
      "k" : 1,
      "bottom" : "",
      "debug_info" : "1180_squeeze",
      "n" : 1,
      "weights" : {

      },
      "constant_blob" : 167
    },
    {
      "bottom" : "1172,1180_squeeze",
      "alpha" : 1,
      "operation" : 0,
      "weights" : {

      },
      "fused_relu" : 0,
      "debug_info" : "1182",
      "top" : "1182",
      "type" : "elementwise",
      "name" : "1182",
      "beta" : 0
    },
    {
      "begin_n" : 0,
      "static_sizes_k" : 0,
      "end_mask_h" : false,
      "end_w" : 896,
      "end_h" : 7,
      "begin_h" : 6,
      "stride_n" : 1,
      "end_seq" : 1,
      "begin_mask_seq" : false,
      "begin_mask_h" : false,
      "squeeze_mask_h" : false,
      "stride_k" : 1,
      "type" : "general_slice",
      "begin_mask_k" : false,
      "static_sizes_w" : 0,
      "begin_w" : 0,
      "end_mask_k" : false,
      "use_static_sizes" : false,
      "stride_h" : 1,
      "static_sizes_n" : 0,
      "begin_mask_n" : false,
      "weights" : {

      },
      "name" : "1190_slice_by_index",
      "stride_seq" : 1,
      "end_k" : 1,
      "static_sizes_seq" : 0,
      "top" : "1190_slice_by_index",
      "begin_seq" : 0,
      "squeeze_mask_k" : false,
      "begin_k" : 0,
      "end_mask_w" : true,
      "end_mask_seq" : false,
      "end_mask_n" : false,
      "debug_info" : "1190_slice_by_index",
      "stride_w" : 1,
      "squeeze_mask_seq" : false,
      "static_sizes_h" : 0,
      "begin_mask_w" : false,
      "bottom" : "raw_boxes",
      "end_n" : 1,
      "squeeze_mask_w" : false,
      "squeeze_mask_n" : false
    },
    {
      "size_of_axes" : 1,
      "bottom" : "1190_slice_by_index",
      "axes_0" : 1,
      "weights" : {

      },
      "nd_axis" : 0,
      "debug_info" : "1190_squeeze",
      "version" : 1,
      "top" : "1190_squeeze",
      "type" : "squeeze",
      "name" : "1190_squeeze"
    },
    {
      "bottom" : "1190_squeeze",
      "alpha" : 0.0078125,
      "operation" : 1,
      "weights" : {

      },
      "fused_relu" : 0,
      "debug_info" : "_inversed_1192",
      "top" : "_inversed_1192",
      "type" : "elementwise",
      "name" : "_inversed_1192",
      "beta" : 0
    },
    {
      "top" : "1200_squeeze",
      "w" : 896,
      "h" : 1,
      "name" : "1200_squeeze",
      "nd_rank" : 1,
      "type" : "load_constant",
      "k" : 1,
      "bottom" : "",
      "debug_info" : "1200_squeeze",
      "n" : 1,
      "weights" : {

      },
      "constant_blob" : 169
    },
    {
      "bottom" : "_inversed_1192,1200_squeeze",
      "alpha" : 1,
      "operation" : 1,
      "weights" : {

      },
      "fused_relu" : 0,
      "debug_info" : "1201",
      "top" : "1201",
      "type" : "elementwise",
      "name" : "1201",
      "beta" : 0
    },
    {
      "top" : "1209_squeeze",
      "w" : 896,
      "h" : 1,
      "name" : "1209_squeeze",
      "nd_rank" : 1,
      "type" : "load_constant",
      "k" : 1,
      "bottom" : "",
      "debug_info" : "1209_squeeze",
      "n" : 1,
      "weights" : {

      },
      "constant_blob" : 171
    },
    {
      "bottom" : "1201,1209_squeeze",
      "alpha" : 1,
      "operation" : 0,
      "weights" : {

      },
      "fused_relu" : 0,
      "debug_info" : "1211",
      "top" : "1211",
      "type" : "elementwise",
      "name" : "1211",
      "beta" : 0
    },
    {
      "begin_n" : 0,
      "static_sizes_k" : 0,
      "end_mask_h" : false,
      "end_w" : 896,
      "end_h" : 8,
      "begin_h" : 7,
      "stride_n" : 1,
      "end_seq" : 1,
      "begin_mask_seq" : false,
      "begin_mask_h" : false,
      "squeeze_mask_h" : false,
      "stride_k" : 1,
      "type" : "general_slice",
      "begin_mask_k" : false,
      "static_sizes_w" : 0,
      "begin_w" : 0,
      "end_mask_k" : false,
      "use_static_sizes" : false,
      "stride_h" : 1,
      "static_sizes_n" : 0,
      "begin_mask_n" : false,
      "weights" : {

      },
      "name" : "1219_slice_by_index",
      "stride_seq" : 1,
      "end_k" : 1,
      "static_sizes_seq" : 0,
      "top" : "1219_slice_by_index",
      "begin_seq" : 0,
      "squeeze_mask_k" : false,
      "begin_k" : 0,
      "end_mask_w" : true,
      "end_mask_seq" : false,
      "end_mask_n" : false,
      "debug_info" : "1219_slice_by_index",
      "stride_w" : 1,
      "squeeze_mask_seq" : false,
      "static_sizes_h" : 0,
      "begin_mask_w" : false,
      "bottom" : "raw_boxes",
      "end_n" : 1,
      "squeeze_mask_w" : false,
      "squeeze_mask_n" : false
    },
    {
      "size_of_axes" : 1,
      "bottom" : "1219_slice_by_index",
      "axes_0" : 1,
      "weights" : {

      },
      "nd_axis" : 0,
      "debug_info" : "1219_squeeze",
      "version" : 1,
      "top" : "1219_squeeze",
      "type" : "squeeze",
      "name" : "1219_squeeze"
    },
    {
      "bottom" : "1219_squeeze",
      "alpha" : 0.0078125,
      "operation" : 1,
      "weights" : {

      },
      "fused_relu" : 0,
      "debug_info" : "_inversed_1221",
      "top" : "_inversed_1221",
      "type" : "elementwise",
      "name" : "_inversed_1221",
      "beta" : 0
    },
    {
      "top" : "1229_squeeze",
      "w" : 896,
      "h" : 1,
      "name" : "1229_squeeze",
      "nd_rank" : 1,
      "type" : "load_constant",
      "k" : 1,
      "bottom" : "",
      "debug_info" : "1229_squeeze",
      "n" : 1,
      "weights" : {

      },
      "constant_blob" : 173
    },
    {
      "bottom" : "_inversed_1221,1229_squeeze",
      "alpha" : 1,
      "operation" : 1,
      "weights" : {

      },
      "fused_relu" : 0,
      "debug_info" : "1230",
      "top" : "1230",
      "type" : "elementwise",
      "name" : "1230",
      "beta" : 0
    },
    {
      "top" : "1238_squeeze",
      "w" : 896,
      "h" : 1,
      "name" : "1238_squeeze",
      "nd_rank" : 1,
      "type" : "load_constant",
      "k" : 1,
      "bottom" : "",
      "debug_info" : "1238_squeeze",
      "n" : 1,
      "weights" : {

      },
      "constant_blob" : 175
    },
    {
      "bottom" : "1230,1238_squeeze",
      "alpha" : 1,
      "operation" : 0,
      "weights" : {

      },
      "fused_relu" : 0,
      "debug_info" : "1240",
      "top" : "1240",
      "type" : "elementwise",
      "name" : "1240",
      "beta" : 0
    },
    {
      "begin_n" : 0,
      "static_sizes_k" : 0,
      "end_mask_h" : false,
      "end_w" : 896,
      "end_h" : 9,
      "begin_h" : 8,
      "stride_n" : 1,
      "end_seq" : 1,
      "begin_mask_seq" : false,
      "begin_mask_h" : false,
      "squeeze_mask_h" : false,
      "stride_k" : 1,
      "type" : "general_slice",
      "begin_mask_k" : false,
      "static_sizes_w" : 0,
      "begin_w" : 0,
      "end_mask_k" : false,
      "use_static_sizes" : false,
      "stride_h" : 1,
      "static_sizes_n" : 0,
      "begin_mask_n" : false,
      "weights" : {

      },
      "name" : "1248_slice_by_index",
      "stride_seq" : 1,
      "end_k" : 1,
      "static_sizes_seq" : 0,
      "top" : "1248_slice_by_index",
      "begin_seq" : 0,
      "squeeze_mask_k" : false,
      "begin_k" : 0,
      "end_mask_w" : true,
      "end_mask_seq" : false,
      "end_mask_n" : false,
      "debug_info" : "1248_slice_by_index",
      "stride_w" : 1,
      "squeeze_mask_seq" : false,
      "static_sizes_h" : 0,
      "begin_mask_w" : false,
      "bottom" : "raw_boxes",
      "end_n" : 1,
      "squeeze_mask_w" : false,
      "squeeze_mask_n" : false
    },
    {
      "size_of_axes" : 1,
      "bottom" : "1248_slice_by_index",
      "axes_0" : 1,
      "weights" : {

      },
      "nd_axis" : 0,
      "debug_info" : "1248_squeeze",
      "version" : 1,
      "top" : "1248_squeeze",
      "type" : "squeeze",
      "name" : "1248_squeeze"
    },
    {
      "bottom" : "1248_squeeze",
      "alpha" : 0.0078125,
      "operation" : 1,
      "weights" : {

      },
      "fused_relu" : 0,
      "debug_info" : "_inversed_1250",
      "top" : "_inversed_1250",
      "type" : "elementwise",
      "name" : "_inversed_1250",
      "beta" : 0
    },
    {
      "top" : "1258_squeeze",
      "w" : 896,
      "h" : 1,
      "name" : "1258_squeeze",
      "nd_rank" : 1,
      "type" : "load_constant",
      "k" : 1,
      "bottom" : "",
      "debug_info" : "1258_squeeze",
      "n" : 1,
      "weights" : {

      },
      "constant_blob" : 177
    },
    {
      "bottom" : "_inversed_1250,1258_squeeze",
      "alpha" : 1,
      "operation" : 1,
      "weights" : {

      },
      "fused_relu" : 0,
      "debug_info" : "1259",
      "top" : "1259",
      "type" : "elementwise",
      "name" : "1259",
      "beta" : 0
    },
    {
      "top" : "1267_squeeze",
      "w" : 896,
      "h" : 1,
      "name" : "1267_squeeze",
      "nd_rank" : 1,
      "type" : "load_constant",
      "k" : 1,
      "bottom" : "",
      "debug_info" : "1267_squeeze",
      "n" : 1,
      "weights" : {

      },
      "constant_blob" : 179
    },
    {
      "bottom" : "1259,1267_squeeze",
      "alpha" : 1,
      "operation" : 0,
      "weights" : {

      },
      "fused_relu" : 0,
      "debug_info" : "1269",
      "top" : "1269",
      "type" : "elementwise",
      "name" : "1269",
      "beta" : 0
    },
    {
      "begin_n" : 0,
      "static_sizes_k" : 0,
      "end_mask_h" : false,
      "end_w" : 896,
      "end_h" : 10,
      "begin_h" : 9,
      "stride_n" : 1,
      "end_seq" : 1,
      "begin_mask_seq" : false,
      "begin_mask_h" : false,
      "squeeze_mask_h" : false,
      "stride_k" : 1,
      "type" : "general_slice",
      "begin_mask_k" : false,
      "static_sizes_w" : 0,
      "begin_w" : 0,
      "end_mask_k" : false,
      "use_static_sizes" : false,
      "stride_h" : 1,
      "static_sizes_n" : 0,
      "begin_mask_n" : false,
      "weights" : {

      },
      "name" : "1277_slice_by_index",
      "stride_seq" : 1,
      "end_k" : 1,
      "static_sizes_seq" : 0,
      "top" : "1277_slice_by_index",
      "begin_seq" : 0,
      "squeeze_mask_k" : false,
      "begin_k" : 0,
      "end_mask_w" : true,
      "end_mask_seq" : false,
      "end_mask_n" : false,
      "debug_info" : "1277_slice_by_index",
      "stride_w" : 1,
      "squeeze_mask_seq" : false,
      "static_sizes_h" : 0,
      "begin_mask_w" : false,
      "bottom" : "raw_boxes",
      "end_n" : 1,
      "squeeze_mask_w" : false,
      "squeeze_mask_n" : false
    },
    {
      "size_of_axes" : 1,
      "bottom" : "1277_slice_by_index",
      "axes_0" : 1,
      "weights" : {

      },
      "nd_axis" : 0,
      "debug_info" : "1277_squeeze",
      "version" : 1,
      "top" : "1277_squeeze",
      "type" : "squeeze",
      "name" : "1277_squeeze"
    },
    {
      "bottom" : "1277_squeeze",
      "alpha" : 0.0078125,
      "operation" : 1,
      "weights" : {

      },
      "fused_relu" : 0,
      "debug_info" : "_inversed_1279",
      "top" : "_inversed_1279",
      "type" : "elementwise",
      "name" : "_inversed_1279",
      "beta" : 0
    },
    {
      "top" : "1287_squeeze",
      "w" : 896,
      "h" : 1,
      "name" : "1287_squeeze",
      "nd_rank" : 1,
      "type" : "load_constant",
      "k" : 1,
      "bottom" : "",
      "debug_info" : "1287_squeeze",
      "n" : 1,
      "weights" : {

      },
      "constant_blob" : 181
    },
    {
      "bottom" : "_inversed_1279,1287_squeeze",
      "alpha" : 1,
      "operation" : 1,
      "weights" : {

      },
      "fused_relu" : 0,
      "debug_info" : "1288",
      "top" : "1288",
      "type" : "elementwise",
      "name" : "1288",
      "beta" : 0
    },
    {
      "top" : "1296_squeeze",
      "w" : 896,
      "h" : 1,
      "name" : "1296_squeeze",
      "nd_rank" : 1,
      "type" : "load_constant",
      "k" : 1,
      "bottom" : "",
      "debug_info" : "1296_squeeze",
      "n" : 1,
      "weights" : {

      },
      "constant_blob" : 183
    },
    {
      "bottom" : "1288,1296_squeeze",
      "alpha" : 1,
      "operation" : 0,
      "weights" : {

      },
      "fused_relu" : 0,
      "debug_info" : "1298",
      "top" : "1298",
      "type" : "elementwise",
      "name" : "1298",
      "beta" : 0
    },
    {
      "begin_n" : 0,
      "static_sizes_k" : 0,
      "end_mask_h" : false,
      "end_w" : 896,
      "end_h" : 11,
      "begin_h" : 10,
      "stride_n" : 1,
      "end_seq" : 1,
      "begin_mask_seq" : false,
      "begin_mask_h" : false,
      "squeeze_mask_h" : false,
      "stride_k" : 1,
      "type" : "general_slice",
      "begin_mask_k" : false,
      "static_sizes_w" : 0,
      "begin_w" : 0,
      "end_mask_k" : false,
      "use_static_sizes" : false,
      "stride_h" : 1,
      "static_sizes_n" : 0,
      "begin_mask_n" : false,
      "weights" : {

      },
      "name" : "1306_slice_by_index",
      "stride_seq" : 1,
      "end_k" : 1,
      "static_sizes_seq" : 0,
      "top" : "1306_slice_by_index",
      "begin_seq" : 0,
      "squeeze_mask_k" : false,
      "begin_k" : 0,
      "end_mask_w" : true,
      "end_mask_seq" : false,
      "end_mask_n" : false,
      "debug_info" : "1306_slice_by_index",
      "stride_w" : 1,
      "squeeze_mask_seq" : false,
      "static_sizes_h" : 0,
      "begin_mask_w" : false,
      "bottom" : "raw_boxes",
      "end_n" : 1,
      "squeeze_mask_w" : false,
      "squeeze_mask_n" : false
    },
    {
      "size_of_axes" : 1,
      "bottom" : "1306_slice_by_index",
      "axes_0" : 1,
      "weights" : {

      },
      "nd_axis" : 0,
      "debug_info" : "1306_squeeze",
      "version" : 1,
      "top" : "1306_squeeze",
      "type" : "squeeze",
      "name" : "1306_squeeze"
    },
    {
      "bottom" : "1306_squeeze",
      "alpha" : 0.0078125,
      "operation" : 1,
      "weights" : {

      },
      "fused_relu" : 0,
      "debug_info" : "_inversed_1308",
      "top" : "_inversed_1308",
      "type" : "elementwise",
      "name" : "_inversed_1308",
      "beta" : 0
    },
    {
      "top" : "1316_squeeze",
      "w" : 896,
      "h" : 1,
      "name" : "1316_squeeze",
      "nd_rank" : 1,
      "type" : "load_constant",
      "k" : 1,
      "bottom" : "",
      "debug_info" : "1316_squeeze",
      "n" : 1,
      "weights" : {

      },
      "constant_blob" : 185
    },
    {
      "bottom" : "_inversed_1308,1316_squeeze",
      "alpha" : 1,
      "operation" : 1,
      "weights" : {

      },
      "fused_relu" : 0,
      "debug_info" : "1317",
      "top" : "1317",
      "type" : "elementwise",
      "name" : "1317",
      "beta" : 0
    },
    {
      "top" : "1325_squeeze",
      "w" : 896,
      "h" : 1,
      "name" : "1325_squeeze",
      "nd_rank" : 1,
      "type" : "load_constant",
      "k" : 1,
      "bottom" : "",
      "debug_info" : "1325_squeeze",
      "n" : 1,
      "weights" : {

      },
      "constant_blob" : 187
    },
    {
      "bottom" : "1317,1325_squeeze",
      "alpha" : 1,
      "operation" : 0,
      "weights" : {

      },
      "fused_relu" : 0,
      "debug_info" : "1327",
      "top" : "1327",
      "type" : "elementwise",
      "name" : "1327",
      "beta" : 0
    },
    {
      "begin_n" : 0,
      "static_sizes_k" : 0,
      "end_mask_h" : false,
      "end_w" : 896,
      "end_h" : 12,
      "begin_h" : 11,
      "stride_n" : 1,
      "end_seq" : 1,
      "begin_mask_seq" : false,
      "begin_mask_h" : false,
      "squeeze_mask_h" : false,
      "stride_k" : 1,
      "type" : "general_slice",
      "begin_mask_k" : false,
      "static_sizes_w" : 0,
      "begin_w" : 0,
      "end_mask_k" : false,
      "use_static_sizes" : false,
      "stride_h" : 1,
      "static_sizes_n" : 0,
      "begin_mask_n" : false,
      "weights" : {

      },
      "name" : "1335_slice_by_index",
      "stride_seq" : 1,
      "end_k" : 1,
      "static_sizes_seq" : 0,
      "top" : "1335_slice_by_index",
      "begin_seq" : 0,
      "squeeze_mask_k" : false,
      "begin_k" : 0,
      "end_mask_w" : true,
      "end_mask_seq" : false,
      "end_mask_n" : false,
      "debug_info" : "1335_slice_by_index",
      "stride_w" : 1,
      "squeeze_mask_seq" : false,
      "static_sizes_h" : 0,
      "begin_mask_w" : false,
      "bottom" : "raw_boxes",
      "end_n" : 1,
      "squeeze_mask_w" : false,
      "squeeze_mask_n" : false
    },
    {
      "size_of_axes" : 1,
      "bottom" : "1335_slice_by_index",
      "axes_0" : 1,
      "weights" : {

      },
      "nd_axis" : 0,
      "debug_info" : "1335_squeeze",
      "version" : 1,
      "top" : "1335_squeeze",
      "type" : "squeeze",
      "name" : "1335_squeeze"
    },
    {
      "bottom" : "1335_squeeze",
      "alpha" : 0.0078125,
      "operation" : 1,
      "weights" : {

      },
      "fused_relu" : 0,
      "debug_info" : "_inversed_1337",
      "top" : "_inversed_1337",
      "type" : "elementwise",
      "name" : "_inversed_1337",
      "beta" : 0
    },
    {
      "top" : "1345_squeeze",
      "w" : 896,
      "h" : 1,
      "name" : "1345_squeeze",
      "nd_rank" : 1,
      "type" : "load_constant",
      "k" : 1,
      "bottom" : "",
      "debug_info" : "1345_squeeze",
      "n" : 1,
      "weights" : {

      },
      "constant_blob" : 189
    },
    {
      "bottom" : "_inversed_1337,1345_squeeze",
      "alpha" : 1,
      "operation" : 1,
      "weights" : {

      },
      "fused_relu" : 0,
      "debug_info" : "1346",
      "top" : "1346",
      "type" : "elementwise",
      "name" : "1346",
      "beta" : 0
    },
    {
      "top" : "1354_squeeze",
      "w" : 896,
      "h" : 1,
      "name" : "1354_squeeze",
      "nd_rank" : 1,
      "type" : "load_constant",
      "k" : 1,
      "bottom" : "",
      "debug_info" : "1354_squeeze",
      "n" : 1,
      "weights" : {

      },
      "constant_blob" : 191
    },
    {
      "bottom" : "1346,1354_squeeze",
      "alpha" : 1,
      "operation" : 0,
      "weights" : {

      },
      "fused_relu" : 0,
      "debug_info" : "1356",
      "top" : "1356",
      "type" : "elementwise",
      "name" : "1356",
      "beta" : 0
    },
    {
      "begin_n" : 0,
      "static_sizes_k" : 0,
      "end_mask_h" : false,
      "end_w" : 896,
      "end_h" : 13,
      "begin_h" : 12,
      "stride_n" : 1,
      "end_seq" : 1,
      "begin_mask_seq" : false,
      "begin_mask_h" : false,
      "squeeze_mask_h" : false,
      "stride_k" : 1,
      "type" : "general_slice",
      "begin_mask_k" : false,
      "static_sizes_w" : 0,
      "begin_w" : 0,
      "end_mask_k" : false,
      "use_static_sizes" : false,
      "stride_h" : 1,
      "static_sizes_n" : 0,
      "begin_mask_n" : false,
      "weights" : {

      },
      "name" : "1364_slice_by_index",
      "stride_seq" : 1,
      "end_k" : 1,
      "static_sizes_seq" : 0,
      "top" : "1364_slice_by_index",
      "begin_seq" : 0,
      "squeeze_mask_k" : false,
      "begin_k" : 0,
      "end_mask_w" : true,
      "end_mask_seq" : false,
      "end_mask_n" : false,
      "debug_info" : "1364_slice_by_index",
      "stride_w" : 1,
      "squeeze_mask_seq" : false,
      "static_sizes_h" : 0,
      "begin_mask_w" : false,
      "bottom" : "raw_boxes",
      "end_n" : 1,
      "squeeze_mask_w" : false,
      "squeeze_mask_n" : false
    },
    {
      "size_of_axes" : 1,
      "bottom" : "1364_slice_by_index",
      "axes_0" : 1,
      "weights" : {

      },
      "nd_axis" : 0,
      "debug_info" : "1364_squeeze",
      "version" : 1,
      "top" : "1364_squeeze",
      "type" : "squeeze",
      "name" : "1364_squeeze"
    },
    {
      "bottom" : "1364_squeeze",
      "alpha" : 0.0078125,
      "operation" : 1,
      "weights" : {

      },
      "fused_relu" : 0,
      "debug_info" : "_inversed_1366",
      "top" : "_inversed_1366",
      "type" : "elementwise",
      "name" : "_inversed_1366",
      "beta" : 0
    },
    {
      "top" : "1374_squeeze",
      "w" : 896,
      "h" : 1,
      "name" : "1374_squeeze",
      "nd_rank" : 1,
      "type" : "load_constant",
      "k" : 1,
      "bottom" : "",
      "debug_info" : "1374_squeeze",
      "n" : 1,
      "weights" : {

      },
      "constant_blob" : 193
    },
    {
      "bottom" : "_inversed_1366,1374_squeeze",
      "alpha" : 1,
      "operation" : 1,
      "weights" : {

      },
      "fused_relu" : 0,
      "debug_info" : "1375",
      "top" : "1375",
      "type" : "elementwise",
      "name" : "1375",
      "beta" : 0
    },
    {
      "top" : "1383_squeeze",
      "w" : 896,
      "h" : 1,
      "name" : "1383_squeeze",
      "nd_rank" : 1,
      "type" : "load_constant",
      "k" : 1,
      "bottom" : "",
      "debug_info" : "1383_squeeze",
      "n" : 1,
      "weights" : {

      },
      "constant_blob" : 195
    },
    {
      "bottom" : "1375,1383_squeeze",
      "alpha" : 1,
      "operation" : 0,
      "weights" : {

      },
      "fused_relu" : 0,
      "debug_info" : "1385",
      "top" : "1385",
      "type" : "elementwise",
      "name" : "1385",
      "beta" : 0
    },
    {
      "begin_n" : 0,
      "static_sizes_k" : 0,
      "end_mask_h" : false,
      "end_w" : 896,
      "end_h" : 14,
      "begin_h" : 13,
      "stride_n" : 1,
      "end_seq" : 1,
      "begin_mask_seq" : false,
      "begin_mask_h" : false,
      "squeeze_mask_h" : false,
      "stride_k" : 1,
      "type" : "general_slice",
      "begin_mask_k" : false,
      "static_sizes_w" : 0,
      "begin_w" : 0,
      "end_mask_k" : false,
      "use_static_sizes" : false,
      "stride_h" : 1,
      "static_sizes_n" : 0,
      "begin_mask_n" : false,
      "weights" : {

      },
      "name" : "1393_slice_by_index",
      "stride_seq" : 1,
      "end_k" : 1,
      "static_sizes_seq" : 0,
      "top" : "1393_slice_by_index",
      "begin_seq" : 0,
      "squeeze_mask_k" : false,
      "begin_k" : 0,
      "end_mask_w" : true,
      "end_mask_seq" : false,
      "end_mask_n" : false,
      "debug_info" : "1393_slice_by_index",
      "stride_w" : 1,
      "squeeze_mask_seq" : false,
      "static_sizes_h" : 0,
      "begin_mask_w" : false,
      "bottom" : "raw_boxes",
      "end_n" : 1,
      "squeeze_mask_w" : false,
      "squeeze_mask_n" : false
    },
    {
      "size_of_axes" : 1,
      "bottom" : "1393_slice_by_index",
      "axes_0" : 1,
      "weights" : {

      },
      "nd_axis" : 0,
      "debug_info" : "1393_squeeze",
      "version" : 1,
      "top" : "1393_squeeze",
      "type" : "squeeze",
      "name" : "1393_squeeze"
    },
    {
      "bottom" : "1393_squeeze",
      "alpha" : 0.0078125,
      "operation" : 1,
      "weights" : {

      },
      "fused_relu" : 0,
      "debug_info" : "_inversed_1395",
      "top" : "_inversed_1395",
      "type" : "elementwise",
      "name" : "_inversed_1395",
      "beta" : 0
    },
    {
      "top" : "1403_squeeze",
      "w" : 896,
      "h" : 1,
      "name" : "1403_squeeze",
      "nd_rank" : 1,
      "type" : "load_constant",
      "k" : 1,
      "bottom" : "",
      "debug_info" : "1403_squeeze",
      "n" : 1,
      "weights" : {

      },
      "constant_blob" : 197
    },
    {
      "bottom" : "_inversed_1395,1403_squeeze",
      "alpha" : 1,
      "operation" : 1,
      "weights" : {

      },
      "fused_relu" : 0,
      "debug_info" : "1404",
      "top" : "1404",
      "type" : "elementwise",
      "name" : "1404",
      "beta" : 0
    },
    {
      "top" : "1412_squeeze",
      "w" : 896,
      "h" : 1,
      "name" : "1412_squeeze",
      "nd_rank" : 1,
      "type" : "load_constant",
      "k" : 1,
      "bottom" : "",
      "debug_info" : "1412_squeeze",
      "n" : 1,
      "weights" : {

      },
      "constant_blob" : 199
    },
    {
      "bottom" : "1404,1412_squeeze",
      "alpha" : 1,
      "operation" : 0,
      "weights" : {

      },
      "fused_relu" : 0,
      "debug_info" : "1414",
      "top" : "1414",
      "type" : "elementwise",
      "name" : "1414",
      "beta" : 0
    },
    {
      "begin_n" : 0,
      "static_sizes_k" : 0,
      "end_mask_h" : false,
      "end_w" : 896,
      "end_h" : 15,
      "begin_h" : 14,
      "stride_n" : 1,
      "end_seq" : 1,
      "begin_mask_seq" : false,
      "begin_mask_h" : false,
      "squeeze_mask_h" : false,
      "stride_k" : 1,
      "type" : "general_slice",
      "begin_mask_k" : false,
      "static_sizes_w" : 0,
      "begin_w" : 0,
      "end_mask_k" : false,
      "use_static_sizes" : false,
      "stride_h" : 1,
      "static_sizes_n" : 0,
      "begin_mask_n" : false,
      "weights" : {

      },
      "name" : "1422_slice_by_index",
      "stride_seq" : 1,
      "end_k" : 1,
      "static_sizes_seq" : 0,
      "top" : "1422_slice_by_index",
      "begin_seq" : 0,
      "squeeze_mask_k" : false,
      "begin_k" : 0,
      "end_mask_w" : true,
      "end_mask_seq" : false,
      "end_mask_n" : false,
      "debug_info" : "1422_slice_by_index",
      "stride_w" : 1,
      "squeeze_mask_seq" : false,
      "static_sizes_h" : 0,
      "begin_mask_w" : false,
      "bottom" : "raw_boxes",
      "end_n" : 1,
      "squeeze_mask_w" : false,
      "squeeze_mask_n" : false
    },
    {
      "size_of_axes" : 1,
      "bottom" : "1422_slice_by_index",
      "axes_0" : 1,
      "weights" : {

      },
      "nd_axis" : 0,
      "debug_info" : "1422_squeeze",
      "version" : 1,
      "top" : "1422_squeeze",
      "type" : "squeeze",
      "name" : "1422_squeeze"
    },
    {
      "bottom" : "1422_squeeze",
      "alpha" : 0.0078125,
      "operation" : 1,
      "weights" : {

      },
      "fused_relu" : 0,
      "debug_info" : "_inversed_1424",
      "top" : "_inversed_1424",
      "type" : "elementwise",
      "name" : "_inversed_1424",
      "beta" : 0
    },
    {
      "top" : "1432_squeeze",
      "w" : 896,
      "h" : 1,
      "name" : "1432_squeeze",
      "nd_rank" : 1,
      "type" : "load_constant",
      "k" : 1,
      "bottom" : "",
      "debug_info" : "1432_squeeze",
      "n" : 1,
      "weights" : {

      },
      "constant_blob" : 201
    },
    {
      "bottom" : "_inversed_1424,1432_squeeze",
      "alpha" : 1,
      "operation" : 1,
      "weights" : {

      },
      "fused_relu" : 0,
      "debug_info" : "1433",
      "top" : "1433",
      "type" : "elementwise",
      "name" : "1433",
      "beta" : 0
    },
    {
      "top" : "1441_squeeze",
      "w" : 896,
      "h" : 1,
      "name" : "1441_squeeze",
      "nd_rank" : 1,
      "type" : "load_constant",
      "k" : 1,
      "bottom" : "",
      "debug_info" : "1441_squeeze",
      "n" : 1,
      "weights" : {

      },
      "constant_blob" : 203
    },
    {
      "bottom" : "1433,1441_squeeze",
      "alpha" : 1,
      "operation" : 0,
      "weights" : {

      },
      "fused_relu" : 0,
      "debug_info" : "1443",
      "top" : "1443",
      "type" : "elementwise",
      "name" : "1443",
      "beta" : 0
    },
    {
      "begin_n" : 0,
      "static_sizes_k" : 0,
      "end_mask_h" : false,
      "end_w" : 896,
      "end_h" : 16,
      "begin_h" : 15,
      "stride_n" : 1,
      "end_seq" : 1,
      "begin_mask_seq" : false,
      "begin_mask_h" : false,
      "squeeze_mask_h" : false,
      "stride_k" : 1,
      "type" : "general_slice",
      "begin_mask_k" : false,
      "static_sizes_w" : 0,
      "begin_w" : 0,
      "end_mask_k" : false,
      "use_static_sizes" : false,
      "stride_h" : 1,
      "static_sizes_n" : 0,
      "begin_mask_n" : false,
      "weights" : {

      },
      "name" : "1451_slice_by_index",
      "stride_seq" : 1,
      "end_k" : 1,
      "static_sizes_seq" : 0,
      "top" : "1451_slice_by_index",
      "begin_seq" : 0,
      "squeeze_mask_k" : false,
      "begin_k" : 0,
      "end_mask_w" : true,
      "end_mask_seq" : false,
      "end_mask_n" : false,
      "debug_info" : "1451_slice_by_index",
      "stride_w" : 1,
      "squeeze_mask_seq" : false,
      "static_sizes_h" : 0,
      "begin_mask_w" : false,
      "bottom" : "raw_boxes",
      "end_n" : 1,
      "squeeze_mask_w" : false,
      "squeeze_mask_n" : false
    },
    {
      "size_of_axes" : 1,
      "bottom" : "1451_slice_by_index",
      "axes_0" : 1,
      "weights" : {

      },
      "nd_axis" : 0,
      "debug_info" : "1451_squeeze",
      "version" : 1,
      "top" : "1451_squeeze",
      "type" : "squeeze",
      "name" : "1451_squeeze"
    },
    {
      "bottom" : "1451_squeeze",
      "alpha" : 0.0078125,
      "operation" : 1,
      "weights" : {

      },
      "fused_relu" : 0,
      "debug_info" : "_inversed_1453",
      "top" : "_inversed_1453",
      "type" : "elementwise",
      "name" : "_inversed_1453",
      "beta" : 0
    },
    {
      "top" : "1461_squeeze",
      "w" : 896,
      "h" : 1,
      "name" : "1461_squeeze",
      "nd_rank" : 1,
      "type" : "load_constant",
      "k" : 1,
      "bottom" : "",
      "debug_info" : "1461_squeeze",
      "n" : 1,
      "weights" : {

      },
      "constant_blob" : 205
    },
    {
      "bottom" : "_inversed_1453,1461_squeeze",
      "alpha" : 1,
      "operation" : 1,
      "weights" : {

      },
      "fused_relu" : 0,
      "debug_info" : "1462",
      "top" : "1462",
      "type" : "elementwise",
      "name" : "1462",
      "beta" : 0
    },
    {
      "top" : "1470_squeeze",
      "w" : 896,
      "h" : 1,
      "name" : "1470_squeeze",
      "nd_rank" : 1,
      "type" : "load_constant",
      "k" : 1,
      "bottom" : "",
      "debug_info" : "1470_squeeze",
      "n" : 1,
      "weights" : {

      },
      "constant_blob" : 207
    },
    {
      "bottom" : "1462,1470_squeeze",
      "alpha" : 1,
      "operation" : 0,
      "weights" : {

      },
      "fused_relu" : 0,
      "debug_info" : "1472",
      "top" : "1472",
      "type" : "elementwise",
      "name" : "1472",
      "beta" : 0
    },
    {
      "bottom" : "1112,1116,1120,1124,1153,1182,1211,1240,1269,1298,1327,1356,1385,1414,1443,1472",
      "weights" : {

      },
      "nd_axis" : -1,
      "debug_info" : "1475",
      "top" : "1475",
      "type" : "stack_nd",
      "name" : "1475"
    },
    {
      "bottom" : "1475",
      "size_of_axes" : 1,
      "axes_0" : 0,
      "weights" : {

      },
      "nd_axis" : 0,
      "debug_info" : "1477",
      "top" : "1477",
      "type" : "expand_dims",
      "name" : "1477",
      "attributes" : {
        "is_output" : 1
      }
    }
  ],
  "transform_params" : {
    "image" : {
      "bias_a" : 0,
      "bias_g" : -1,
      "bias_r" : -1,
      "bias_b" : -1,
      "center_mean" : 0,
      "is_network_bgr" : 0,
      "scale" : 0.0078431377187371254
    }
  },
  "storage" : "model.espresso.weights",
  "metadata_in_weights" : [

  ],
  "properties" : {

  },
  "analyses" : {

  },
  "format_version" : 200
}